Yoonje/saved_models/classification-3_epoch=60-valid_loss=0.59.ckpt (torch, 356823 bytes, 86 tensors)

_backbone.linear_layers.0.weight f4 [128, 99]
00000000: 8e4d be3d 473f c0bd c3ac 333c a622 933c
00000010: 98ae a3bc 6046 8abd a98d a2bd 69cd 86bb
00000020: 4eb0 8bbd af1c 233d 0816 a1bd fefd e1bc
00000030: fb4c 83bc 4548 2a3d 024e 963d 7c1c c53d
00000040: a0a8 993b 6d72 d0bd 70c0 eebc 8c5c 3f3c
00000050: a990 203d 7b62 b43d d6e8 c8bd 0405 f8bc
00000060: 70ff 853d e587 483d db12 1dbd bce7 c13c
00000070: 1275 853d 1fc4 3f3b cca2 39bc 781d 823c
00000080: 7710 3fbd 1385 cebd d4a7 363d 67ea 0d3d
00000090: 36c3 8abd 8c52 b33c 4019 e5bc 73cb c03d
000000a0: 62ad 35bd 2736 ad3d 365d 3c3d de56 8a3c
000000b0: 0dd1 ba3c 472f a73c 0a3e 783d 6e2a 2abd
000000c0: 77dd b9bc 0b4f 59bd 0908 853c 8e6f 4cbd
000000d0: 9ade 6e3d 2dda a8bc 4fa4 cf3d 9381 313d
000000e0: 1069 cbbd 8d80 263c 1026 363d 5e6f 74bd
000000f0: 6d6f a53c 10d9 f73c e325 cdbd ad54 c1bd
00000100: 2910 da39 9b41 2f3d 642f 76bd de69 70bd
00000110: 5ccf 67bd 6ea9 e23c dc7c fbbc b1c0 1cbd
00000120: 52c0 4d3b c74f 8cbc 0b86 a3bc 7292 8d3d
00000130: 9e65 99bd 4bba a4bb 6eb0 86bc 90ef 053d
00000140: 14bb 7ebd 0271 123c bea9 b4bd 68f5 ae3d
00000150: 5800 5b3c 620b edbb d4f8 bcbd b10d 8d3d
00000160: 1c85 813d 0a1c 843d c4bd 91bd d959 623b
00000170: 3d90 65bd 1b65 5dbd 6443 a8bd 341c 703d
00000180: b2e0 83bc e07c 3f3d 7c5e bfbc ab94 29bc
00000190: 0c9f 62ba 5cab a4bd 98c7 bdbd b70a 303d
000001a0: 3e5d a4bb 64f4 cab9 9a76 c33b fa9f 283b
000001b0: c712 6a3d fdbb 8fbc abaa bbbc b05f b1bd
000001c0: f11d 833c 9a38 813d 35c5 4fbd 0338 25bd
000001d0: 873c 55bd 886f c43d b7e5 c2bd 5adb 643d
000001e0: db72 72bd 7915 a8bd a848 b63d 736b 9d3c
000001f0: 698e 2e3d df37 f3bc 669e bebd 15b4 843c
00000200: 57e7 293d 0b76 b23d 812e 58bd d893 c43d
00000210: 2ec5 c83d dad7 82bd c221 f6bc 6f3f ba3d
00000220: 46e3 2b3d 018f a6bd 386b afbd 479b c4bd
00000230: a0f7 60bd 143e 263d 25be 44bd f48e c73d
00000240: e922 14bc 2187 823d 3538 74bd 0e5a be3d
00000250: 03fd c93c 84c2 963d b459 4b3d e27a a4bd
00000260: f2d4 8c3d 2415 d2bc 8718 70bd 73cf 7e3d
00000270: 1424 b0bd 0f47 103d 32e2 a9bd 945a 9cbd
00000280: 85c2 2e3d 242b b63c 0761 b23d 3bfb a33d
00000290: 34dc 9fbd 682d a23d 1115 b93d 956b 8fba
000002a0: f696 713d f9e2 9b3d 5b80 9cbd 3b59 5e3d
000002b0: 719f 753d 9485 ccbd 5afa 053d 0614 553d
000002c0: ea2b 123d f5bf 00bd d4c1 5b3c 358b 813d
000002d0: c300 1b3d 774a 8abd 3a08 d5bc e099 c23d
000002e0: fc97 863d 9718 5ebd b801 acbd 9279 883d
000002f0: 350c b93d 8f15 86bd 2e0a 9bbd 1237 81bc
00000300: c846 17bc 2452 ab3c c950 503d 1d22 04bd
00000310: 6111 7f3d 7da0 95bd eada 6f3d b29b 753c
00000320: 9b09 3dbd 9c14 303c 028d b73c 4419 393d
00000330: 4d25 1cbd d031 013c d998 6dbd 030b 75bd
00000340: 2c6a 9bbd da6d 053d 47ba 36bc ad05 953c
00000350: 77a9 46bd 0a1c 133d f7cc b2bd f374 963c
00000360: e21d 9abd 2079 cabd 0fe6 a5bd 7a83 bb3d
00000370: 001f b73d d889 463d d597 be3c 4a45 b93d
00000380: f685 5abd 5078 8d3d 8407 383d 29ff 993d
00000390: 7697 383d 860b 1ebc ddb5 a9bd 7e3e 36bd
000003a0: 5766 aaba b5cc 6a3d fe16 fdbc 81c4 a73d
000003b0: d45e 83bb 7465 abbd 463b 9dbd e712 06bc
000003c0: 907d 853d c05b 9dbc fedc a73d 546d 903d
000003d0: 5339 bc3d 93c2 2b3d 23c9 ee3b 82da 46bd
000003e0: 91f6 61bd 5bb3 a3bd 8740 89bd 97a9 3e3d
000003f0: 4175 bf3c 5bd7 a4bd cfa1 c83c 4f9d a33d
0.09292136 -0.09387069 0.010966483 0.017960858 -0.019980714 -0.06751704 -0.07937176 -0.0041138423
-0.06820737 0.039822277 -0.0786553 -0.027586933 -0.016027918 0.041572828 0.073390976 0.096245736
0.004689291 -0.10178075 -0.029144496 0.01167978 0.03920046 0.08807846 -0.09810035 -0.03027583
0.065428615 0.048957724 -0.03834806 0.02367007 0.0651647 0.0029261184 -0.011330318 0.015883192
-0.04664656 -0.10083976 0.044593647 0.03464737 -0.06775515 0.021889947 -0.027966142 0.09413805
-0.044354804 0.08457594 0.04598733 0.016887125 0.022804761 0.020408286 0.06060604 -0.04154437
-0.02268861 -0.053053897 0.016239183 -0.049911074 0.05831776 -0.020611847 0.10138761 0.043336462
-0.099321485 0.010162485 0.044469893 -0.05967652 0.020194734 0.03025487 -0.10016992 -0.09439979
0.0004159224 0.042787176 -0.06010379 -0.058694713 -0.056594238 0.027668681 -0.030699186 -0.038269702
0.003139515 -0.017127885 -0.019961378 0.06912698 -0.07490085 -0.0050270907 -0.01644155 0.032699168
-0.06219013 0.008938076 -0.08821438 0.08542901 0.013366781 -0.007234023 -0.09227148 0.06887377
0.06324217 0.064506605 -0.07116273 0.0034538417 -0.05604576 -0.0540515 -0.08215979 0.058620647
-0.016098354 0.04674995 -0.023360483 -0.010350387 -0.00086449157 -0.08040497 -0.09266585 0.04297897
-0.005015998 -0.00038710528 0.005965066 0.002573012 0.057146814 -0.017545694 -0.02290853 -0.08660829
0.016005488 0.06309624 -0.05072518 -0.04033662 -0.052059676 0.095915854 -0.09516471 0.055873252
-0.059191566 -0.082072206 0.08900577 0.019216275 0.04261628 -0.029689727 -0.09307556 0.016199151
0.04148039 0.08713921 -0.052778725 0.095985115 0.09803234 -0.06388827 -0.030045394 0.0909413
0.04196479 -0.081327446 -0.08565372 -0.09599929 -0.054923654 0.040586546 -0.0480329 0.09744063
-0.009041526 0.0637343 -0.059623916 0.0929452 0.024656778 0.0736132 0.049646094 -0.080312505
0.068765536 -0.025644846 -0.05861714 0.062209558 -0.08600631 0.035224017 -0.082950965 -0.07634464
0.042665977 0.022237368 0.08709913 0.08006903 -0.07805672 0.07918817 0.09037221 -0.0010942096
0.05898186 0.07611651 -0.07641669 0.054284316 0.05996651 -0.099864155 0.032709457 0.05202105
0.03568641 -0.031433064 0.013412911 0.0632538 0.037842523 -0.06752484 -0.0260049 0.095020056
0.065719575 -0.05422267 -0.08398765 0.06663813 0.090355314 -0.06547081 -0.07570301 -0.01577333
-0.009233184 0.020913191 0.050858293 -0.032259095 0.062272433 -0.07306001 0.058558382 0.014990734
-0.04615174 0.010747101 0.022406105 0.04519011 -0.03812151 0.007885411 -0.058007095 -0.059824955
-0.0758861 0.032575466 -0.01115281 0.018191183 -0.048501458 0.035915412 -0.087305 0.018366313
-0.07525231 -0.09886384 -0.08100521 0.091559365 0.0894146 0.0484713 0.023265759 0.09046419
-0.05335041 0.069077134 0.044929042 0.07519371 0.04506632 -0.009646302 -0.08286641 -0.04449319
-0.001300047 0.05732413 -0.030894753 0.08191777 -0.004009107 -0.0836896 -0.07677321 -0.008183218
0.0651809 -0.019208789 0.08196448 0.07052103 0.09190621 0.041933607 0.007287161 -0.04854823
-0.055166785 -0.07993194 -0.06701761 0.046548452 0.02337134 -0.08048888 0.024491219 0.079889886

_backbone.linear_layers.0.bias f4 [128]
00000000: 85ef a63d 9cb1 943d 7b84 42bd c377 e8bc
00000010: 7846 cfbd d20f a03d d968 34bd 55bb 8b3c
00000020: 052e 1d3d c007 ca3d 7a98 7fbd 7f4a edbb
00000030: 54f2 88bd 8e4d 9e3c 42f9 5cbd 6520 573d
00000040: 6282 893c 6d48 8a3d e872 9dbd 7544 903d
00000050: 0948 c0bd 3743 24bd d1ca a7bd b15a 8ebd
00000060: 8cb5 a23d 67ca 9abd f185 9d3d a9bf af3d
00000070: 4a3c 5dbd b84a 483d aecc 64bd 1908 553d
00000080: fc65 46bd 6d9a ed3c 4dd1 09bd cc3a 42bc
00000090: 08e5 cdbd 0aae 8bbd 8f72 22bd e90d 123c
000000a0: bd86 b63d 7d40 25bc ae3c ad3d fc36 033d
000000b0: 7d8d a7bd ce35 c93d 3bb6 cf3c c6b5 523d
000000c0: ae71 febc 28ab 853d a4d2 173d d95b a33d
000000d0: 1e2a a13d af46 683d 18fb 89bd 1712 993d
000000e0: 3ecd 63bd 4124 57bd d523 21bd 2cd3 a1bd
000000f0: 302e 4d3d 3496 b03d 5070 a8bd 4e3f a9bc
00000100: c4e3 b3bd 68e1 913d 0bd0 bcbd 37eb 61bd
00000110: efae 8d3d 690f 703d 3b55 5fbd 20f5 b03d
00000120: b2ab 70bb d06d d43d f755 b93d 7352 8dbd
00000130: 910b 73bd 9179 a7bc 87f3 e73c 69a6 36bc
00000140: 35c0 513d a699 743c 49a0 43bd 2fb7 c0bd
00000150: 7605 58bd 596d b13c 434f 1fbd 2d6e 2e3d
00000160: 679c b93d eb3f 96bd 1445 5f3d 47f6 4fbd
00000170: 5ee3 733d 96fd c43b 619d ce3d 192a 9e3d
00000180: 89be 813d 67a6 96bd aed0 80bd 3bde a53d
00000190: cb7b b7bb 6412 8b3d 039f 023d 8d2c 31bd
000001a0: 4cd2 b43d 1ac9 c2bd 2bd0 643d fe4c c3bb
000001b0: 880f 473d ed86 c9bc 7b12 b8bc 909f 823d
000001c0: 003c 973d bc34 8d3d bbfb e3bc 9363 cebd
000001d0: a977 dabc 8bbf a0bd fd56 17bd 9d38 46bd
000001e0: 3af5 253d 16c6 9ebc 69d2 aabc a9b3 913d
000001f0: c51d af3d 5666 6f3d 0582 bbbc 6db1 223c
0.081511535 0.07260439 -0.047489624 -0.02837742 -0.10120863 0.078155175 -0.044045303 0.0170571
0.038373966 0.098647594 -0.062401272 -0.0072415466 -0.066868454 0.01932409 -0.05394865 0.05252113
0.016785804 0.06752095 -0.07687932 0.07044307 -0.093887396 -0.040103164 -0.08192981 -0.06950892
0.079447836 -0.075581364 0.07691563 0.08581478 -0.054012574 0.048899382 -0.05585926 0.052009676
-0.048437104 0.0290043 -0.03364687 -0.011854839 -0.1005345 -0.06820305 -0.039660033 0.008914449
0.08912418 -0.010086176 0.08458839 0.03203486 -0.081812836 0.098247156 0.025355449 0.051442884
-0.031060066 0.06526786 0.037066117 0.07976503 0.07869361 0.056708034 -0.067373455 0.074741535
-0.055615656 -0.05252481 -0.039340813 -0.07901606 0.050092876 0.08622399 -0.08224547 -0.020660069
-0.08783677 0.07123071 -0.092193685 -0.05515596 0.069181316 0.058608446 -0.05452464 0.08640504
-0.0036723432 0.103725076 0.090495996 -0.069004916 -0.059337202 -0.02044371 0.028314365 -0.011148074
0.051208694 0.014929211 -0.04776028 -0.094099395 -0.052739583 0.021658586 -0.03889395 0.04258554
0.090630345 -0.0733641 0.054509237 -0.050771978 0.059543006 0.006011675 0.100886114 0.07722873
0.0633517 -0.073559575 -0.062898025 0.08099028 -0.005599474 0.06790617 0.031889927 -0.043255378
0.088291734 -0.09511013 0.055862587 -0.005960106 0.048598796 -0.02460047 -0.02246975 0.063780904
0.07384491 0.06894824 -0.027829995 -0.10077586 -0.026668387 -0.07849034 -0.036948193 -0.048393834
0.04051707 -0.019381564 -0.020852285 0.071143456 0.085506 0.058447205 -0.022889147 0.009929997

_backbone.linear_layers.2.weight f4 [64, 128]
00000000: 6316 4bbd 84e1 aabd f9d5 fabc 07f8 403c
00000010: 9562 21bd 2ae6 9f3c 22b2 bebc f2db 55bd
00000020: e4e2 563c cbc4 6abd 3136 76bd 7b9e 143d
00000030: 5af3 dabb 017b 8bbd 34b4 94bd 18a5 9fbc
00000040: 107d 223d 9194 733d c812 9c3d f8c0 06bd
00000050: fc7f 043d e6c9 f4bc 7052 9bbd 571a 843d
00000060: d3a1 f93b 318e 2abd 939d cebc 74b8 d7bc
00000070: a2f9 973d 063d 41bb 59fa 3cbd 04a6 f03c
00000080: 43a2 bcbc 583a 10bd 2d00 2dbc 9314 053d
00000090: 1c57 633d 32b5 323b 0842 36bd 2915 9a3c
000000a0: 1980 b0bd b2c1 563b 0fca c73c 877a 1f3c
000000b0: d92d f43b 402b f4ba 1043 a4bb 2134 803d
000000c0: 7db5 813d 64b8 a1bd 456f 9abd f36e 053d
000000d0: 6f98 a23d c183 84bd 7ac2 403d bff5 b4bd
000000e0: b687 3dbc 1ecd 5f3c 3b27 9b3b 1aa0 4dbd
000000f0: 00f0 e1bc 9b5d ab3d 5db0 aebc f0d7 653d
00000100: 82c2 9b3d 80cd 9e3d 53cb 14bd 26db d93c
00000110: ac2b 22bd 62fd 8e3d fa6b 033d c913 08bc
00000120: be0f d13c 1f14 473d fe01 123d e370 b43d
00000130: 69fc cb3c 6b7a a5bd af9b cabc c6a1 dfbc
00000140: e255 c13c cf85 bdbc e687 5a3d 74d5 43bd
00000150: 9bbd 43bd 84af 473d edab 783d 2d70 b33d
00000160: 6231 e1bc 2835 893d 866b 713d a71e 2ebc
00000170: 04c7 5e3d e4be ecbc e6ce 9e3c 68ad ac3d
00000180: 34ac 9cbd 5d8c e33c 3956 4a3d 038a a1bd
00000190: 4abb 2e3d fdaa 62bd 9e95 d93c 8be3 993d
000001a0: f801 a8bd f429 49bd dc46 cdbc 23e6 1ebd
000001b0: 8b69 c13c 9ecd fdbc 4b33 a03d 493e 26bd
000001c0: f02e ad3d 7aaf 1a3d 95ab 9abd 9fd1 a8bd
000001d0: 2b79 9b3d f11f f73c b02a 5e3b 54e7 b33d
000001e0: f7b5 293d e32d 6f3d 66a0 83bd b684 e13c
000001f0: bc21 45bd 2c3a 00bc 9f9c 4f3d cf69 9e3d
00000200: 9ac8 bb3d 44b8 0dbc 3195 9ebd 7ef9 af3d
00000210: fe80 1e3d 7246 28bd 1470 263c e82a a13c
00000220: c049 35bd 160f b23d 4550 23bd 6b2b 81bd
00000230: 082f 7c3c 39e7 cabc 055f 883c 429d d63c
00000240: 9afc a3bd a5c9 673d 1631 7cbd 8516 b83d
00000250: 813c 8cbd 4609 19bd adc9 e73c 355b d83c
00000260: 1f48 24bd 3dbb 983d 805c 6d3d 180e 08bc
00000270: 8f33 16bd b977 ad3d 5550 7bbc ff03 29bd
00000280: 8ab6 c0bb 4307 dabc 93d9 81bd 30b6 b4bb
00000290: 95bb b0bc 3920 a0bd 07e7 a53d 4312 a83d
000002a0: 4978 263d 7bb9 93bc 4e45 163d 90c8 233b
000002b0: 69f3 833d a5e6 01bd f30c ec3c 4a9b 543c
000002c0: b4db 503d 54e2 43bd f52a 7d3d e629 883d
000002d0: c19c 8f3d 0ddf cbbb 5a02 31bd 9d8f ba3c
000002e0: 38e1 223d 0223 2dbd b32f f5bc 596f 733d
000002f0: 1619 90bd b246 a83d a285 ab3d 18a0 15bc
00000300: fd01 683d 6847 673d 3abc 953c 992b 413c
00000310: fa3c 563d 62ce 893d 2e02 943d 976f d63a
00000320: 83f1 623b cb15 603c f4ae 64ba ff5f 1ebd
00000330: 37f9 4d3d 9f96 80bd 61e3 2f3d 4511 29bd
00000340: ecbd 823d 22ac 8139 b89b c7bc 8536 ae3d
00000350: 78c7 953b eaf6 ad3b 439f 34bd 404e ac3d
00000360: cb32 c53c cb85 6f3d fc5f 83bd 7b1f 153d
00000370: 14dc 41bb dd95 313d 64db 25bd d1f0 d3bc
00000380: 13cd 04bd d2b5 3cbc ab54 59bd 863f 28bc
00000390: cab7 88bd 41ae 27bd a75c 523d a8e1 43bc
000003a0: fd9a 5fbc cbad 02bd 55da c3bc 4e77 793d
000003b0: 1971 0e3d 8766 5abb 81e8 2cbc 0b74 943d
000003c0: 281d 2d3d b76f ae3c 2ddf 2c3d d790 3e3d
000003d0: 2302 98bd 967f 4abd 8856 ad3d 208d 603d
000003e0: 5963 ba3b e1cf b23d d25c a73d 8c23 ed3c
000003f0: d8d1 343d 5e59 133d 4ac4 57bd ba25 963d
-0.049581897 -0.08343795 -0.030619608 0.011777884 -0.039400656 0.01951893 -0.0232783 -0.05221171
0.013115618 -0.057316583 -0.060110275 0.03628395 -0.006681842 -0.068105705 -0.072609335 -0.019487903
0.03967005 0.059467856 0.0762077 -0.032898873 0.032348618 -0.029881429 -0.07584083 0.064503364
0.007618168 -0.04163951 -0.025221622 -0.026333071 0.074206606 -0.0029485836 -0.046137188 0.029376037
-0.023026591 -0.03521189 -0.010559124 0.032490324 0.055502996 0.0027268645 -0.044496566 0.018808918
-0.08618183 0.003276926 0.024388341 0.009733803 0.0074517545 -0.0018628612 -0.0050128773 0.06259943
0.06333444 -0.07896498 -0.07540754 0.032576513 0.07939231 -0.064704426 0.047060467 -0.08835935
-0.011568001 0.013659744 0.0047349012 -0.050201513 -0.027580261 0.08367463 -0.021324331 0.056114137
0.07605459 0.0775404 -0.036326718 0.026593756 -0.03959243 0.06981923 0.032085396 -0.008305498
0.025520202 0.048603173 0.03564643 0.08810594 0.024900632 -0.0807999 -0.024732439 -0.02729882
0.023600522 -0.023135094 0.05335226 -0.047810987 -0.047788244 0.04875137 0.060710836 0.0876163
-0.027489368 0.06699592 0.058940433 -0.010627425 0.054389015 -0.028899617 0.019385766 0.08431512
-0.07650033 0.027776891 0.049398635 -0.07887652 0.04265908 -0.05533885 0.0265606 0.075141035
-0.082035005 -0.049112275 -0.025058202 -0.038793694 0.023609897 -0.030981835 0.07822283 -0.040586744
0.08456218 0.037765004 -0.07552258 -0.08243107 0.0759147 0.030166598 0.0033899955 0.08784357
0.0414333 0.05839337 -0.06427078 0.027529102 -0.048127875 -0.007826369 0.050686475 0.07735025
0.09169121 -0.008649889 -0.077433 0.08592509 0.038697235 -0.041082807 0.010158557 0.01967378
-0.044259787 0.08694284 -0.039871473 -0.063071094 0.0153920725 -0.024768459 0.016646871 0.026198033
-0.08007164 0.056588788 -0.06157025 0.0898867 -0.06847478 -0.03736236 0.028294409 0.026410678
-0.040107843 0.07457588 0.057949543 -0.008304141 -0.036670264 0.08470101 -0.015338977 -0.041263577
-0.0058811354 -0.02661479 -0.06340327 -0.0055148825 -0.021573821 -0.07818646 0.081007056 0.08206608
0.040642057 -0.01803278 0.036687188 0.002499137 0.06442911 -0.0317141 0.028814768 0.012976477
0.050990775 -0.047823265 0.061808545 0.066486165 0.0701232 -0.006221658 -0.043215133 0.022773558
0.039765567 -0.042269714 -0.029929971 0.05943236 -0.07036035 0.08216609 0.08375098 -0.009132408
0.05664252 0.056464583 0.01827823 0.01179018 0.052304246 0.067288175 0.07226978 0.0016360161
0.0034628815 0.013677071 -0.000872358 -0.038665768 0.050286498 -0.06278729 0.042941455 -0.041276235
0.06383881 0.00024733046 -0.024366245 0.085064925 0.0045708977 0.0053089755 -0.044097196 0.084133625
0.024072072 0.058477204 -0.06414792 0.036406975 -0.002958064 0.04335581 -0.04049243 -0.025871666
-0.032422137 -0.011517959 -0.05305926 -0.010269051 -0.0667568 -0.040937666 0.05135789 -0.011955656
-0.013647792 -0.031904023 -0.02390782 0.060904793 0.034775827 -0.0033325271 -0.01055348 0.07248696
0.042264134 0.021293504 0.042205025 0.04652485 -0.074222825 -0.04943808 0.0846377 0.054822087
0.0056881127 0.08731056 0.08172001 0.028947614 0.044145435 0.0359739 -0.05267743 0.073314145

_backbone.linear_layers.2.bias f4 [64]
00000000: 438e 253d 108f e6bc d41e 8e3d fb5c 723d
00000010: 8570 80bd a183 4f3c 0798 9e3c 191a febb
00000020: 4ea1 06bd 36e6 25bb f35c ff3c 29b2 aabc
00000030: 83a8 9a3d 99e9 41bd b3f2 553d a2cb 94bd
00000040: c2e9 a0bd 9613 3f3d edaf 94bd b8b7 2d3d
00000050: 5d2a 5cbc 011f 5f3d 1588 d53c ea37 c63c
00000060: bffe 723d 00a1 19bd 7de2 383d 4c64 8e3d
00000070: cd30 793d fc69 563d a1d3 19bd 5601 b0bb
00000080: 1329 ec3c d43e 853c 78fe 1bbd 87b0 d43c
00000090: 72a1 3b36 646d b73a d617 703d caa4 6bbd
000000a0: 1efa 4f3d 9940 6d3d d614 2fbb ae9b aebd
000000b0: 82b3 d73c fda9 7cbd 6af9 343d dc39 8fbc
000000c0: 1311 8e3d 284b b3ba eff0 513d 408a 2fbd
000000d0: 91b4 e4bc 059c b33b 666e d73b c958 eebb
000000e0: 6cad 96bd 8e8c 5abc de34 6dbd c210 d3bc
000000f0: c293 24bc 21bd bc3d 848a 7abc a4d3 d4bc
0.040418874 -0.02814439 0.06939474 0.059170704 -0.062714614 0.01266566 0.019359602 -0.007754576
-0.032868676 -0.0025314218 0.031172251 -0.020836907 0.07551672 -0.047341917 0.05223341 -0.072654024
-0.07857086 0.046649538 -0.07260118 0.042411536 -0.013437835 0.054472927 0.026065866 0.024196584
0.059324976 -0.037507057 0.04513787 0.06952724 0.060837556 0.05234717 -0.03755534 -0.005371253
0.02882818 0.01626531 -0.038084477 0.025963081 2.7959145e-06 0.0013994393 0.05861648 -0.057530202
0.05077564 0.057922933 -0.00267153 -0.08525787 0.026330713 -0.06168555 0.044183172 -0.017483644
0.069368504 -0.0013679015 0.051255163 -0.042856455 -0.027918132 0.0054812455 0.00657444 -0.0072737676
-0.07357296 -0.013339175 -0.057911746 -0.025764827 -0.010044994 0.09215761 -0.015291814 -0.025979824

_backbone.linear_layers.4.weight f4 [32, 64]
00000000: abb2 31bc 0eb0 133d a1b0 dd3d 45fe 7f3d
00000010: 63f7 5e3d d2ad d43d a4ee b53c f43f 9c3d
00000020: 2403 493d a0da ff3c b07b dabc 4407 a83d
00000030: 2d95 87bd 77f8 f0bc ca8e 0bbc 688c 2fbd
00000040: e8ec cb3d 0676 ba3d 9577 f03c f395 11bd
00000050: 1495 67bd a442 8fbc 5b8b ec3c 1ac8 2b3d
00000060: 7c6f 423d 8093 26bd 93c1 2dbd 114f 52bd
00000070: 6894 e63d 93f8 693d 2f21 fd3d 4511 babd
00000080: eace b63d cc5e 073b 9d88 8fbc 35b6 023e
00000090: a4f8 be3c 17fd 3fbd b7d6 68bd a81f 133c
000000a0: 2bcc adbd 29ee e4bd 4f63 733d 2a8c 68bc
000000b0: 251a e3bd 6cd2 b63d 9134 1fbd 7624 c6bd
000000c0: ba2b af3d e69d 513c d785 a63d 740e e9bd
000000d0: e84e ac3d 4497 1abc f61e 893d b582 f03d
000000e0: bcc0 56bd ed41 37bd 3620 d2bd d617 3b3d
000000f0: 7915 3c3d f6d8 9d3d c3e5 01bc ab5d 8a3d
00000100: da73 a7bd cb29 db3d 6680 b43d 9204 a0bd
00000110: 47d5 99bc 062b fdbd d27e c2bd 0e26 063d
00000120: 2f58 5abd 0f3a e23d d26f c13d 6baa 603d
00000130: b2a7 3b3d 63be fdbd 93e2 e53d 2747 0dbc
00000140: be42 84bd 1173 58bc 1109 a6bd 1e5a c7bd
00000150: b9ac 2b3d a049 663d bd39 62bc 1997 783d
00000160: a747 9cbd 6c40 47bd 84e6 32bd 0db5 5d3b
00000170: 0f1b 7c3d 08b7 ee3c e9eb 813d ba66 bc3c
00000180: 6dc1 53bd 1112 4d3d c241 b53c cec4 d93c
00000190: d9da fbbd 0a81 98bc 9037 543d c5d3 6dbd
000001a0: b265 35bc 18a2 94bd 5f27 de3d 74c2 0fbc
000001b0: fc0a dc3b dc7d d6bd b5f7 f13b 9e50 e33d
000001c0: ca05 58bd bcf5 e93d a749 233c dee2 7fbb
000001d0: 238a a0bd 8c66 943c a2be c73d 3a0f e1bd
000001e0: 1034 5a3c c996 dd3d b61c 0bbd ecf2 c63d
000001f0: f71f 483d 8d30 f63c b7b2 c9bd 116c f8bd
00000200: ad51 c1bd 1073 a53d d4e7 bf3c 748c dd3d
00000210: 37a9 85bd 9415 bebd 9940 02be a5cc 813d
00000220: c47f 123d 55bf d73d 88b0 9a3d c987 573d
00000230: 73d3 84bc 1560 d33d 1c78 563d d4c1 853d
00000240: dd2c bdbd c337 28bc 46eb 4dbd fbb2 03be
00000250: 0be5 07bd 4bf6 68bd fbca 643d 3746 093d
00000260: 176a a83d 3614 84bd 42d8 c8bd 2091 02be
00000270: 875e 703d 561b 99bd 7802 c9bd 53b5 64bd
00000280: 6e14 413d 0f2c e2bd b749 a33d 8c87 f3bd
00000290: 7ebd c9bd 77eb 50bd cd5e bb3c 0363 67bb
000002a0: ad1b bebd fc84 bb3d 748d 0dbc ad2c c13c
000002b0: 9855 f9bc ca3e 90bd ab2d 14bb a2af ab3d
000002c0: 8729 aa3d 6a44 0c3d 123f dd3d 441a af3d
000002d0: d76e 953d d624 03be 48e8 c8bb 5504 ddbd
000002e0: c5bf 01be 8a1f 2b3c 3306 10bd 1a45 c0bd
000002f0: 2c3c c1bd df79 ca3c 9e34 3bbd 34af eabd
00000300: fb74 cb3d 7170 47bd d51c 93bd 6cd7 dfbd
00000310: 1735 ec3d 7211 133d 4050 2c3b 1077 5ebd
00000320: 8774 563c c925 67bd 0691 55bd e74d 923d
00000330: 579f a93d eaa3 b83d 40cf d5bc 6ca2 c13c
00000340: 4b6a ec3d 908e 923d 2937 cebd c80f ffba
00000350: 1cde 003d 291b 4a3c f1a2 6bbd 84ba a53c
00000360: 8b5b e13c e31c c53b cd0d 99bc c42f a83c
00000370: 8927 983d b5b1 93bd f7ec 99bd c390 663d
00000380: 0a69 833d 42e3 ba3c 963d ec3d c187 08bd
00000390: 73eb 9a3d 2f12 88ba ffcc dfbd a3cb 19bc
000003a0: 75bf df3d af07 ffbd f934 133d fe74 92bd
000003b0: 6fe9 fb3c 053b 963d 8475 b63c 31ce e93d
000003c0: 573e ccbd 1063 f9bd e3b8 a1bc 7c39 38bd
000003d0: 9d98 df3d 5a4d f03c 9029 513d 7631 82bd
000003e0: 05da adbd 6a4b 4d3d 4493 dd3d 238d 16bd
000003f0: 9bbe a2bd 5a6f ffbd 4256 8e3d def1 893d
-0.01084582 0.03605657 0.10824705 0.06249835 0.054435145 0.10384716 0.02220852 0.076293856
0.04907526 0.031232178 -0.026670307 0.08204511 -0.0662025 -0.029415352 -0.00851793 -0.04285851
0.09957296 0.091045424 0.029353896 -0.035543393 -0.056538656 -0.017487831 0.028875044 0.04193888
0.0474696 -0.04066801 -0.042420935 -0.051344935 0.11258775 0.057121824 0.12359845 -0.09085325
0.089261845 0.0020655869 -0.017521197 0.12764819 0.02331192 -0.046872225 -0.056845393 0.008979715
-0.084862076 -0.11178238 0.05942088 -0.014193574 -0.11088971 0.089268535 -0.03886849 -0.09674923
0.08553262 0.012793994 0.08130997 -0.1137971 0.08413488 -0.009435479 0.066953585 0.117436804
-0.0524299 -0.044740606 -0.1026005 0.04567703 0.045918915 0.07707398 -0.007928315 0.06756147
-0.08176394 0.10701331 0.088135526 -0.07813372 -0.018778456 -0.12361722 -0.09496845 0.032751136
-0.053306755 0.1104623 0.09445156 0.054850023 0.045814224 -0.12389829 0.11224856 -0.008622921
-0.064580426 -0.013211028 -0.08107198 -0.09733985 0.041912768 0.056222558 -0.013807711 0.060690973
-0.07630854 -0.04864542 -0.043676868 0.0033829839 0.061549243 0.02914001 0.063438244 0.022998203
-0.051698137 0.050066058 0.022126082 0.026583102 -0.12297601 -0.018616218 0.0518108 -0.058063287
-0.011071609 -0.072574794 0.10847353 -0.008774389 0.0067151766 -0.104732245 0.0073842653 0.11099361
-0.052739896 0.11423823 0.009966291 -0.0039045135 -0.078388475 0.018115304 0.09753157 -0.10989232
0.013318077 0.108197756 -0.033962928 0.097143024 0.04885861 0.030052448 -0.0984854 -0.12129987
-0.094394065 0.08078587 0.023425974 0.10817805 -0.06526416 -0.092814595 -0.12719955 0.06337861
0.035766378 0.105345406 0.07553202 0.05261973 -0.016214108 0.103210606 0.05236064 0.065311104
-0.092370726 -0.010267201 -0.050273202 -0.12861244 -0.033177417 -0.05687551 0.05585764 0.033514228
0.0822336 -0.064491674 -0.09806873 -0.12750673 0.0586839 -0.07475917 -0.09814924 -0.055836987
0.047138624 -0.1104356 0.07973044 -0.11891088 -0.09850596 -0.051005807 0.022872353 -0.0035306818
-0.092826225 0.09156224 -0.008639682 0.023580873 -0.030436322 -0.07043226 -0.0022610228 0.08383109
0.08308702 0.034244932 0.10803045 0.08549932 0.07296532 -0.1280702 -0.0061312057 -0.10791842
-0.1267081 0.010444531 -0.035162162 -0.0938818 -0.09435305 0.024716316 -0.045704477 -0.114591986
0.09934422 -0.048691217 -0.07183234 -0.1092976 0.115335636 0.03590531 0.002629295 -0.054312766
0.013089306 -0.05643252 -0.05214026 0.07143765 0.08282345 0.09015639 -0.026099801 0.02363702
0.11543711 0.07156098 -0.10069115 -0.0019459659 0.03146182 0.012335577 -0.05752844 0.02023054
0.027509471 0.0060154065 -0.018683339 0.020530589 0.07429416 -0.07211629 -0.075159006 0.0562904
0.06416519 0.022813443 0.11535184 -0.03333259 0.075644396 -0.0010381396 -0.10927772 -0.00938693
0.109251894 -0.124526374 0.03593919 -0.07151221 0.030750958 0.07335476 0.022272833 0.11416281
-0.09972828 -0.12177098 -0.019741481 -0.044976696 0.109177805 0.02933376 0.051065028 -0.0635709
-0.084888496 0.05012075 0.10819104 -0.036755692 -0.07946511 -0.124724105 0.06950046 0.06735586

_backbone.linear_layers.4.bias f4 [32]
00000000: 0a28 cc3d 5f55 d23d bddd fabc 1926 5fbd
00000010: 763e 54bd 17b6 d6bd a20f 1bbd 5bc9 8b3d
00000020: 37a0 f83b f6c7 73bd c791 1c3d c8bf 95bd
00000030: c216 cc3d 0548 90bd 43aa 383b eac4 973c
00000040: 3a72 983a 8aed 4b3c 4be7 fb3c b627 bcbd
00000050: bf50 8dbd 746d 92bd 48cc ac3c 88fa 953d
00000060: 44e9 8abc 0bf4 023d 72ef ff3c a924 abbc
00000070: b26c b43d a3a1 f5bd 86fc b8bd 02b6 4d3c
0.09968574 0.102701895 -0.030623311 -0.054479692 -0.05181738 -0.1048395 -0.037856705 0.06825515
0.0075874585 -0.05951687 0.03822496 -0.0731197 0.09965278 -0.07044987 0.0028177656 0.018526513
0.0011630722 0.01244677 0.030749938 -0.09187262 -0.06900167 -0.07149783 0.021093503 0.07323176
-0.016956933 0.03197102 0.031242106 -0.020891504 0.088097945 -0.119937204 -0.0903254 0.012555601

_embedding_layer.cat_embedding_layers.0.weight f4 [8, 4]
00000000: ae15 013f 8888 e9bf 3fee 8fbf 1053 3b3f
00000010: 5511 2bbf c450 cd3c 0519 aa3f 905e ac3c
00000020: fa63 fcbe aa28 1a3f 0bf9 833f c020 94bf
00000030: 5326 dbbe 003c 85bf c6a2 463e 7b2e 11bf
00000040: f2c3 513f 4c29 5dbf 7905 813e 9d57 a1be
00000050: dce8 0340 810c a1be b40f 52bf ef0c aa3f
00000060: eced 563f 069a b83f 8a6d 953e f820 acbf
00000070: becb 2e3e f15b 6dbe 893e a73f b9ac d7be
0.50423706 -1.8244791 -1.1244582 0.7317362 -0.6682332 0.025062926 1.3288885 0.021041185
-0.49295026 0.602183 1.0310377 -1.1572495 -0.42802677 -1.0408936 0.1939803 -0.5671155
0.81939614 -0.8639114 0.25199488 -0.31512156 2.0610876 -0.31454852 -0.8205521 1.3285197
0.8395679 1.4422004 0.29185134 -1.3447561 0.17069909 -0.23179604 1.3065959 -0.42123964

_embedding_layer.cat_embedding_layers.1.weight f4 [8, 4]
00000000: da48 09bf a0a9 dd3e d39b a2bf f7ca 1f3d
00000010: 8e43 b7bf 3acf 15bf a448 fe3f 2b4b af3f
00000020: 0d86 113e dd71 91be d3ac a03e f1f5 0fbe
00000030: 07a6 963f af98 82bf 7ee2 193f 2a5c 70be
00000040: 0258 50bf 5552 89bf 96e8 9e3f 26a7 14bf
00000050: 7c45 643f 99fc b4bf 2551 9b3f 9670 d6bd
00000060: 909a 76bf d125 a2bd f69f 5a3e 9d54 c23e
00000070: 3c1e 71be 4464 dabe e59c b23f 3f53 92bf
-0.5362679 0.43293476 -1.2703804 0.03901192 -1.4317491 -0.5851933 1.9865918 1.3694814
0.14211293 -0.28407183 0.31381854 -0.14058663 1.1769418 -1.0202845 0.60111225 -0.23472658
-0.8138429 -1.0728251 1.241473 -0.5806755 0.89168525 -1.4139587 1.2134138 -0.10470693
-0.96329594 -0.07917369 0.21350083 0.3795518 -0.2354669 -0.42654622 1.395413 -1.1431655

_embedding_layer.cat_embedding_layers.2.weight f4 [5, 3]
00000000: 178f 03c0 30a8 0340 060a 6abf f6e1 db3e
00000010: 30d1 403e 2855 843f fc2d a03f c0f7 403f
00000020: 6cf8 e03e 60f0 a03f 60a4 cbbe ab95 263f
00000030: f9a7 323f 2b09 62bf 4650 9fbf
-2.0556085 2.0571404 -0.91421545 0.42945832 0.18829799 1.0338488 1.2514033 0.75378036
0.4393953 1.2573357 -0.39773846 0.65072125 0.69787556 -0.8829524 -1.2446373

_embedding_layer.cat_embedding_layers.3.weight f4 [13, 7]
00000000: ee00 d0bf 68af 03be e6f7 fb3e 35ea b93f
00000010: 54e3 88be fd03 bb3e a9c4 b1bd 6706 933f
00000020: cfcb 48bf 5db2 903e 8f67 c53f a841 4abf
00000030: 225a 523e 3527 7a3f 8ddb 8cbf 81c1 b7bf
00000040: dc91 f1bf 85be afbe 863e 0c40 d600 093f
00000050: daa1 1c3f 85fa 6dbf 4dd0 3d3f 2e45 cbbc
00000060: 6872 fabe 719d c03e 3dad 453f 9b5e 26be
00000070: 33b1 30be 7354 9a3f d50d 8fbe cde2 43be
00000080: ccae 5e3f e3fb 0e3f f666 e1bb 554c 123f
00000090: 6ad9 8d3f f233 fc3e a1cb 013e 3a0c 153f
000000a0: 471d b63f baaa 20bf 517c 8dbe 5f87 9c3f
000000b0: 51f6 a5bf 5479 063f adbb 0a3f 3720 693e
000000c0: e2eb e9bc fff3 e8be b582 ecbd d123 b2be
000000d0: ee01 d3bf b8bf 9abe 09c4 77be 198f dfbe
000000e0: 3da3 9f3f 6f1f 3fbf 4880 fd3d 841e a6bf
000000f0: 4de2 edbd 0a58 37bf 2411 a73f 53f3 2fbf
00000100: 7fed 8fbe 6975 443f d88c bb3f 11ff 413f
00000110: a236 f53f c05e 18bc 567d 413f df19 d5bf
00000120: 10b9 9c3f 185d 883f 45f8 e2bf eb23 603e
00000130: 8681 07bf 2b63 863f 2262 233f 2a48 9d3e
00000140: ade1 5ec0 8b09 08bf 4463 98be 5814 dbbe
00000150: f4ad fa3e b676 babf 894e 953e a3c0 083f
00000160: 1807 593f e77f 32bf ce87 313e
-1.6250284 -0.12859881 0.4921257 1.4524599 -0.26735938 0.3652648 -0.08680088 1.1486329
-0.7843599 0.2826108 1.5422229 -0.79006433 0.20542195 0.97716075 -1.1004502 -1.4355928
-1.8872638 -0.34325042 2.1913161 0.535169 0.61184466 -0.9296039 0.74145967 -0.02481326
-0.4891541 0.37620118 0.77217466 -0.16247027 -0.17255096 1.2057022 -0.2794024 -0.19129486
0.8698547 0.558531 -0.006878729 0.57147723 1.1081975 0.4925838 0.12675335 0.5822178
1.4227685 -0.6276051 -0.27633908 1.2228812 -1.2965795 0.5252888 0.5419262 0.22766195
-0.02855486 -0.45498654 -0.11548368 -0.3479295 -1.6484964 -0.30224395 -0.24195875 -0.43663862
1.2471691 -0.7465734 0.12377983 -1.2978063 -0.11615429 -0.7161871 1.3052106 -0.6873066
-0.28110883 0.76741654 1.4652357 0.75779825 1.9157298 -0.009299934 0.7558187 -1.664852
1.2243977 1.065341 -1.7732016 0.21888702 -0.5293201 1.0499014 0.63821614 0.3071912
-3.4825242 -0.5313956 -0.29763234 -0.4278896 0.4896084 -1.4567478 0.2916148 0.5341894
0.8477645 -0.69726413 0.17336962

_embedding_layer.cat_embedding_layers.4.weight f4 [8, 4]
00000000: 9246 0dc0 4a6a 403f fdc4 d83f cf3c 9c3f
00000010: 37ba 96be c2b5 123f f008 13bf 6f80 f7bd
00000020: 5f68 0340 9148 2f40 1635 edbf 60b5 09bf
00000030: d953 0d3d 3890 5b3d eddf a63e 3c46 8d3f
00000040: 1cd5 96bf 8365 823f 88a3 373e 76a2 8cbf
00000050: 2a1e 2840 5f76 6a3f 8c91 8fbf 42f5 c6be
00000060: 609e 2ebf 59f7 91bc f4a4 89be dfce a23f
00000070: 2da2 25bf cd38 14c0 1cf9 723f 4d81 05bf
-2.2074323 0.75162184 1.6935116 1.2206057 -0.29438946 0.5730859 -0.5743551 -0.12085044
2.0532453 2.738804 -1.8531826 -0.5379238 0.03450379 0.053604335 0.32592717 1.1037059
-1.1783786 1.0187229 0.17933476 -1.0987079 2.626841 0.9158687 -1.1216292 -0.38858992
-0.6821041 -0.01781814 -0.26883662 1.2719382 -0.64700586 -2.3159668 0.9491136 -0.5215042

_embedding_layer.cat_embedding_layers.5.weight f4 [8, 4]
00000000: 85dc 7f3f a5fc e1bf e3a3 453e 76cf 5fbf
00000010: ccb1 7a3f 71c9 ed3c 4065 2c3f c2da cc3f
00000020: 197f 1a3f ce20 0c40 cf2e f6bd f310 82bd
00000030: c1dc 9ebf 4ca7 7b3e f5b3 0dbf 6b63 01bf
00000040: 25c6 ef3e 65b5 88be 84c3 37bf 5673 f6bf
00000050: a011 b0be 8ea9 773e 6169 abbe 084b 2b3f
00000060: e7f2 843f 7ef0 31bf d380 39bf 8389 d03f
00000070: 0095 983e cd50 7f3f 6728 08bf 1824 df3e
0.9994586 -1.7655226 0.19300799 -0.87425935 0.97927547 0.029026719 0.67341995 1.600426
0.60350186 2.1895022 -0.12020647 -0.06350889 -1.2411119 0.24575537 -0.5535272 -0.50542325
0.4683086 -0.26700893 -0.7178271 -1.9253948 -0.34388447 0.24185774 -0.33478835 0.66911364
1.0386628 -0.69507587 -0.72462195 1.6291965 0.29801178 0.9973267 -0.5318665 0.43582225

_embedding_layer.cat_embedding_layers.6.weight f4 [8, 4]
00000000: 1cdb cebf 2d2a 1fbf 634b f2bd eaf2 c63f
00000010: 9948 323f 6f3c d1be 2434 87bf 44f4 9f3e
00000020: db42 b2bf 8e9f 26be 202f 82bf 36ff 97bf
00000030: 8406 76bf 7d49 173f be80 c2be d171 f13e
00000040: e54b 55bc 55e5 803f 7d66 93be 0aca 803f
00000050: d597 d8bf 8e24 2ebf 51e4 673f 019b 483e
00000060: f11b a93f 4543 b9be 5d27 97bf 246d b43e
00000070: a115 103f 0520 aa3f e67d 833f 6844 403f
-1.6160617 -0.6217373 -0.11830785 1.5542881 0.69642025 -0.4086642 -1.0562787 0.31241047
-1.3926653 -0.16271803 -1.0170631 -1.1874759 -0.9610369 0.5909651 -0.37988847 0.47157148
-0.013018583 1.0069987 -0.2878913 1.0061657 -1.6921335 -0.6802453 0.9058276 0.1959038
1.3211652 -0.36184135 -1.1808888 0.35239518 0.56283003 1.3291022 1.0272796 0.7510438

_embedding_layer.cat_embedding_layers.7.weight f4 [8, 4]
00000000: 4c68 eebf b7f6 22bf c4a7 20bf c1c4 b9bf
00000010: 4953 1e3f 6307 3a3f a6b1 eebe d74e c6be
00000020: ba03 4b3f bbcf 83be 3874 173f bec1 efbf
00000030: 9e34 293e 2e4a 18be e0b0 5a3f 4c1a e13e
00000040: fc96 763f e509 723f 94d4 373e e742 31be
00000050: 66dc 91bd 46fd 17bf db75 593f 7e77 663f
00000060: a8a2 70bf 7fa4 3b3d 9b91 fa3e 80b9 66be
00000070: ee90 9f3f bd7b 01bf 4ac7 3b3e f136 dabe
-1.8625579 -0.63657707 -0.6275599 -1.451317 0.61845833 0.7266752 -0.4661991 -0.38732025
0.7930256 -0.25744423 0.5916171 -1.8731 0.16523978 -0.14872047 0.8542614 0.43965375
0.96324134 0.9454635 0.17952186 -0.17310677 -0.07122116 -0.5937084 0.8494546 0.9002608
-0.93998194 0.045811173 0.48939213 -0.225317 1.2466104 -0.50579435 0.18337741 -0.42620042

_embedding_layer.cat_embedding_layers.8.weight f4 [8, 4]
00000000: ac7f c8be 4d3b 613f e7e7 c5be 2086 993f
00000010: b69d b9be be10 893f c796 3d3f e0cb b6bf
00000020: bd4a 32be da57 993f 2a1e 003f ea26 283f
00000030: a71e 3cbc c073 a53f 7406 f5bd fe1c 1040
00000040: ac24 303f 7232 4ebf 951f 093c 4f3e a33f
00000050: 309e 13bf a796 c9bf 4b98 093f d743 033f
00000060: 6260 da3e 62a5 40bf 3160 8ebf fee8 d63f
00000070: 6653 3bbf 27b3 98bf 03f5 db3f 2afe d0bf
-0.39159906 0.8798111 -0.3865349 1.1994057 -0.36253136 1.0708234 0.7405819 -1.4280968
-0.17411323 1.1979935 0.50046027 0.6568438 -0.011481917 1.2925949 -0.119641215 2.2517695
0.68805957 -0.80545723 0.008369346 1.275339 -0.5766325 -1.57491 0.53748006 0.5127539
0.4265166 -0.75252354 -1.1123105 1.6789854 -0.7317413 -1.1929673 1.7184147 -1.6327565

_embedding_layer.cat_embedding_layers.9.weight f4 [7, 4]
00000000: 9333 b3bd 1ff3 87be 44c8 d6bf 9269 b8bb
00000010: 561c 92bd 2298 91bf 68a6 7d3f edd6 853e
00000020: 997e abbf d241 cfbc 3738 19be b575 cdbd
00000030: 7e31 40bf a709 7fbf 0db0 97bc a280 c93e
00000040: 7cf9 3dbf 6dea 533f f692 5e3f cbf2 17bf
00000050: 2cde b03e 8e81 40bf 6f4a 933f 232f 25bf
00000060: 9ac4 b23e 0a24 b1bd 8016 bd3e 645d 8d3e
-0.087500714 -0.26552674 -1.6779866 -0.0056278193 -0.07134311 -1.1374552 0.9908204 0.26140538
-1.339801 -0.02529994 -0.1496285 -0.100322165 -0.7507552 -0.99624103 -0.018516565 0.39355952
-0.7420881 0.8277958 0.86942995 -0.5935485 0.34544504 -0.75197685 1.150709 -0.6452505
0.3491562 -0.08649452 0.3693123 0.27610314

_embedding_layer.cat_embedding_layers.10.weight f4 [8, 4]
00000000: 8c68 6fbe 5b29 703d 77c6 09bf af71 503f
00000010: ebfa a83f 0ade 57bf 813f 2ebf bdb9 28c0
00000020: bb84 c8be 2196 22bf ff88 113f 4ea5 06be
00000030: b404 16bf a075 14bf ff04 243f fd5a 9abf
00000040: 624c 2d3f a907 963f 1aea 93bf cb2c 0a3f
00000050: ce8d bfbe e301 8bbd cc94 063f 935f 8d3c
00000060: 2676 9ebf 81d2 8d3e fd6d ad3e 9dac f9be
00000070: 939c b43e 27f4 14bf 5ffd 183f f4f9 87bf
-0.23379725 0.05863319 -0.5381846 0.8142347 1.3201574 -0.8432318 -0.6806565 -2.6363366
-0.39163765 -0.6351033 0.56849664 -0.13148996 -0.58600926 -0.5799198 0.64070123 -1.2059017
0.67694676 1.1721088 -1.1555817 0.539746 -0.37412876 -0.06787469 0.52570796 0.017257487
-1.2379806 0.27699664 0.33872977 -0.48764506 0.35275707 -0.58185047 0.59761614 -1.0623155

_embedding_layer.cat_embedding_layers.11.weight f4 [7, 4]
00000000: e703 42bf 8f96 41bd 4a79 bdbe 5fa3 5a3c
00000010: bd94 923f 317b 1540 0c6c 0640 f96c 9bbf
00000020: ef38 96bf a6b7 95bf 3773 e53e a83d 8abf
00000030: 4552 5b3f a453 413e 533b 723d f21a d9bf
00000040: 37ee 0e3e 7dee 6c3e 4e54 63bf 8405 fcbf
00000050: 45ab 1e3f bf31 a03f 2893 c0bf 81d2 253e
00000060: c14f 97bf 8615 4b3f 13c9 493f b1f9 0c40
-0.75787205 -0.047262724 -0.370066 0.013344615 1.1451641 2.335644 2.1003447 -1.2142631
-1.1736125 -1.169667 0.44814464 -1.0800066 0.8567241 0.18879563 0.059138607 -1.6961348
0.13958059 0.23137851 -0.88800514 -1.9689183 0.61980087 1.2515181 -1.5044909 0.16193582
-1.1821214 0.7932972 0.7882244 2.20274

_embedding_layer.cat_embedding_layers.12.weight f4 [6, 3]
00000000: e4bc 13bf 317a 613f 6f9f 043e 6e00 0cbf
00000010: 68bb 9abf 4e21 43be c9c4 18be ea9d 0040
00000020: 7d27 ec3e 6046 3bbf a428 923e 3330 a73e
00000030: cb9a f7bf 7c08 513e f94d 093e 8405 23bf
00000040: d68e e1be cab1 34be
-0.577101 0.88077074 0.12951444 -0.54688156 -1.2088442 -0.19055673 -0.14918818 2.0096383
0.46123877 -0.7315426 0.2854663 0.3265396 -1.9344114 0.20413393 0.1340865 -0.6368029
-0.44054288 -0.17645946

_embedding_layer.cat_embedding_layers.13.weight f4 [4, 2]
00000000: 71b4 fe3e c503 1f3f 1e46 c13e bc63 103f
00000010: f7e3 1d3f 1633 5ebf 5492 493f 8b2c 3cbf
0.4974704 0.62115127 0.37748808 0.5640218 0.6167597 -0.867967 0.78738904 -0.7350547

_embedding_layer.cat_embedding_layers.14.weight f4 [5, 3]
00000000: ddcc 31bd 5f83 9e3c 32f0 7abd 87d9 babf
00000010: 416e b53f 1091 d2bf 7233 74bf e466 77bf
00000020: d8ea 0f3f 6c21 973d 7d69 31bd 6042 923e
00000030: 3e4c e8bd 2ad7 61bf 0846 93bf
-0.043408263 0.019349752 -0.061264224 -1.4597634 1.4174272 -1.645052 -0.95391 -0.96641374
0.5621772 0.073794216 -0.043313492 0.28566265 -0.11342667 -0.8821894 -1.1505747

_embedding_layer.cat_embedding_layers.15.weight f4 [6, 3]
00000000: 106f 973c f504 31bf dfce 7f3c 226c fbbe
00000010: 7f6d ccbf 5a2d 2fbf d76e 05be 2430 14c0
00000020: 6f99 213f 59ef d03e 36b0 0e3f 5223 d43e
00000030: 549e 653e 2ddc 1abf 1008 f93e 9abf d83e
00000040: 9321 87bf 3ac0 a93f
0.018485576 -0.6914819 0.015613287 -0.49105936 -1.5970916 -0.68428576 -0.13030563 -2.3154383
0.63124746 0.40807608 0.55737627 0.41433197 0.22423679 -0.6049221 0.48638964 0.4233368
-1.0557121 1.3261788

_embedding_layer.cat_embedding_layers.16.weight f4 [8, 4]
00000000: f6dc 6a3e 66a5 dd3f 941c 773f 998d 0740
00000010: a722 89be 2f72 343e 9f7c 4b3e a64a bc3e
00000020: 9d25 9dbf d238 a23f 0894 62bf de52 cf3e
00000030: b62d cfbf 4de7 c33f b71f 8d3e 40bf dfbf
00000040: 535b 45be e162 ddbf 05fc 663f 2090 57bd
00000050: da08 cf3f f6c9 ba3f bf8b 0dbf 8c7a 623e
00000060: c121 cbbf 0279 293d b920 443f e569 4abe
00000070: 14f1 923f 2a59 2dbf 16b1 373e 5623 f6bf
0.22935852 1.7316101 0.9652798 2.1180174 -0.2678425 0.17621683 0.19871758 0.36775702
-1.2277104 1.267359 -0.8850713 0.4049291 -1.6185825 1.5304962 0.2756326 -1.748024
-0.19273119 -1.72958 0.902283 -0.052627683 1.6174576 1.4592884 -0.5529136 0.2211706
-1.5869676 0.041375168 0.7661243 -0.19766958 1.1479821 -0.6771418 0.17938647 -1.9229534

_embedding_layer.cat_embedding_layers.17.weight f4 [10, 5]
00000000: 2f67 7f3e f842 813f efa1 453f 68e0 0abf
00000010: 2000 f1bf ebb8 a8be 64e3 06bf 0519 f7bd
00000020: 6aba 373c b956 58be b71e 0bbf c7ec 4fbe
00000030: f1c3 7b3f 0e83 c8bf b6a7 d43c bca9 29bf
00000040: 1d1f a7bf 438b 07bf a913 173f 6005 44bf
00000050: 9684 a93d 81fe 89bf 68ac a2be 5c76 943d
00000060: 34ce 713f cf46 1ac0 8e03 44bf d26c f5be
00000070: ed9a 373f bfd9 efbd 734c d0be fdcd c4bf
00000080: bd01 663d f5ab a73f cb84 c8bf b2d9 1c3f
00000090: 8719 1abe e11f b63e eab8 b53e 9122 063f
000000a0: c6c8 5a3b f9a9 a2be 3781 b0bf c56c 92bf
000000b0: ece7 4b3e 9500 15bf f18b 0540 649d ccbf
000000c0: 6387 6cbf 73cb 32bf
0.24941705 1.0098562 0.77200216 -0.54248667 -1.8828163 -0.3295358 -0.5269072 -0.12065319
0.011213878 -0.21126832 -0.5434374 -0.20305167 0.9834586 -1.5664995 0.025958877 -0.6627462
-1.305637 -0.5294687 0.59014374 -0.765707 0.08277242 -1.0780793 -0.3177216 0.07249138
0.94455266 -2.4105718 -0.76567924 -0.47934586 0.71720773 -0.11711454 -0.40683326 -1.5375363
0.056154 1.3099352 -1.5665525 0.61269677 -0.150488 0.35571197 0.3549264 0.52396494
0.003338383 -0.31770304 -1.3789433 -1.1439444 0.1991269 -0.58204013 2.0866663 -1.5985532
-0.92394084 -0.6984169

_embedding_layer.normalizing_batch_norm.bn.weight f4 [29]
00000000: 9327 803f ed02 803f 6d26 803f 0b8e 7f3f
00000010: 3037 803f 361c 813f 9b4a 803f 8c51 803f
00000020: b9d9 803f 96a2 803f 2142 803f 4b23 7f3f
00000030: d400 803f 2ecd 7f3f 01d1 803f 8272 803f
00000040: 92f6 7f3f 9d00 803f 5e04 803f ee66 803f
00000050: 52b5 7f3f a600 803f b601 803f 0606 803f
00000060: 5c16 803f 0000 803f 0c00 803f 5539 813f
00000070: 33f2 7f3f
1.0012077 1.0000893 1.0011727 0.99826115 1.0016842 1.0086734 1.0022768 1.0024886
1.0066444 1.0049617 1.0020181 0.9966323 1.0000253 0.99922454 1.0063783 1.0034945
0.9998561 1.0000187 1.0001333 1.0031412 0.9988605 1.0000198 1.0000522 1.0001838
1.0006824 1.0 1.0000014 1.0095621 0.9997894

_embedding_layer.normalizing_batch_norm.bn.bias f4 [29]
00000000: 4e32 373b 746a c1bb 0ea0 23ba 40ae 14b9
00000010: 6578 bdbb f887 c3bb 46c2 85bb 53b1 b6bb
00000020: 91b2 c1bb e50d d9ba 0a20 a2bb 9660 433b
00000030: aaf1 c03b 0d86 8d3b a56e b9bb 9769 4c3b
00000040: e580 84ba da3e b23b 21f1 393a 6dd8 90ba
00000050: 35df a33b 04d0 25bb 2715 40bb d5aa bdbb
00000060: 0639 b5bb b210 c3bb bf6b c33b 0f1a c1bb
00000070: e6f1 bf3b
0.0027953568 -0.005902583 -0.00062418065 -0.00014179293 -0.0057821744 -0.0059671365 -0.004081997 -0.005575338
-0.0059111794 -0.0016559927 -0.004947667 0.0029812208 0.0058881836 0.0043189586 -0.005658942 0.0031190866
-0.0010109214 0.0054396214 0.0007093121 -0.0011050828 0.0050009736 -0.002530099 -0.0029309483 -0.005788187
-0.0055304794 -0.005952918 0.005963772 -0.005892999 0.005857694

_embedding_layer.normalizing_batch_norm.bn.running_mean f4 [29]
00000000: ddad 8bbd 0eba 5dbc 181a 63bc b274 8cbc
00000010: d282 eb3c 3802 2abd 4664 48bd 2cb2 50bd
00000020: 5fa7 853c 0b75 3fbc 2a55 13bd b0ee 34bd
00000030: a356 e93b 9e03 0b3c 3555 35bd 38f4 52bc
00000040: 012e 23bd 4f81 18bd 28ee 513b 0f43 a83c
00000050: 4478 38bd 0793 95bc 3aff f53c 432c 733d
00000060: 8ece 73bc 0000 0000 b0c0 9fbc 91c5 a3bb
00000070: c7ac be3c
-0.06820271 -0.013533128 -0.013861202 -0.017145488 0.028748903 -0.041506022 -0.048923753 -0.050951168
0.01631516 -0.01168562 -0.03596989 -0.044172943 0.0071209236 0.008484749 -0.044270713 -0.012875609
-0.039838795 -0.037232693 0.0032032821 0.020539789 -0.04503657 -0.018258585 0.030028928 0.059368383
-0.014880789 0.0 -0.01950106 -0.004997917 0.023275746

_embedding_layer.normalizing_batch_norm.bn.running_var f4 [29]
00000000: b2a2 253f 88a4 823f 2f85 7d3f b9d1 563f
00000010: 5f39 a13f 422e 803f 1561 7b3f 7444 753f
00000020: 7d77 763f 46a5 803f 458a 783f c6e2 693f
00000030: 7f50 7b3f 4ad6 a13f 1d25 823f 213e 543f
00000040: 5c8f 813f 016a 813f 6d53 7c3f a59e 853f
00000050: 40fd 893f 378a 503f 6094 bb3f 47fa d13f
00000060: 93ec 553f 0400 0000 56ba 4a3f 94e2 7c3f
00000070: ee41 c33f
0.6470138 1.0206461 0.9903135 0.8391376 1.2595633 1.0014117 0.9819501 0.95807576
0.96276075 1.0050437 0.9708598 0.91361654 0.981697 1.2643521 1.0167576 0.829073
1.0121875 1.0110475 0.985648 1.043904 1.0780411 0.814609 1.4654655 1.6404504
0.8356411 6e-45 0.79190576 0.9878323 1.5254495

head.layers.0.weight f4 [2, 32]
00000000: 724d 33bb db8d 8abd 0f14 7dbb 6315 ad3d
00000010: 837e 063e a3b6 12be f0ca de3c 3e37 183e
00000020: e0e8 1cbe 22e0 b1bd 597e 383e 412f 003e
00000030: 8cf1 883d ec6a 15bc a064 e03c 2af9 93bd
00000040: 7830 833d cbde 88bd 5125 20be e5a0 ddbd
00000050: fc2f 20bd 7881 563d 05c5 27be 11ce c5bc
00000060: cc29 a53d 74a5 80bd 79f0 c43d 5377 67bd
00000070: 3041 4d3d 3305 8e3d c76b 94bd 88c0 b03d
00000080: ae86 15be cc50 e23d 1a1f a93d 7a12 113e
00000090: ac50 37be 1159 c63d 9d95 3cbb be0c 32be
000000a0: 534f 8a3d 3afc a4bd ca8b 113c e012 24be
000000b0: 3615 eabd 0fc3 293d 7aab 37be 1a4a 1ebe
000000c0: f331 823d fc5a ca3d dac9 d83d 29d2 96bd
000000d0: 59dc 1ebe 918e 26be 70ce cfbd 55e8 f73d
000000e0: 23db 2e3e e0c0 993c 92e8 143e 3cbf 063e
000000f0: 4cb3 083d c5ee e23d 9f0f d9bd 2aba 003e
-0.0027359393 -0.06765338 -0.0038616692 0.08451345 0.13134198 -0.14327483 0.027196378 0.14864823
-0.1532321 -0.08685328 0.18016948 0.12518026 0.066866964 -0.00911973 0.027391732 -0.07225259
0.06405729 -0.066831194 -0.15639235 -0.10821704 -0.03910826 0.052369565 -0.1638375 -0.024146112
0.08064613 -0.06281558 0.09616179 -0.05651028 0.050110996 0.069345854 -0.072471194 0.086304724
-0.14602157 0.11050567 0.08257885 0.14167204 -0.17901868 0.09684957 -0.00287757 -0.17387673
0.06753411 -0.08055921 0.008883426 -0.16022825 -0.11429827 0.041445788 -0.17936507 -0.15457955
0.06357183 0.09880635 0.10585375 -0.073643036 -0.15513743 -0.16265322 -0.10146797 0.12104861
0.17075782 0.018768728 0.14541844 0.13158888 0.033374116 0.11080698 -0.105986826 0.12571016

head.layers.0.bias f4 [2]
00000000: 5d65 fbbb b3fc 2abe
-0.0076719956 -0.1669796

exp_avg f4 [128, 99]
00000000: a46d bf38 3371 0eb9 ed63 a739 dcf8 ffb8
00000010: 681d 1e38 d85e dd38 05ce 1eb9 5422 ecb8
00000020: d1e9 b8b8 8a65 4eb9 a353 c539 a606 4039
00000030: 92bd 4439 b0c4 20b9 c0a1 acb8 5ce2 a9b9
00000040: 40ea c036 0cc9 8437 7c43 89b7 7ad3 5f39
00000050: a8be 86b9 4f11 0738 5894 ccb6 4397 1838
00000060: c03f 67b8 0a4c 0536 3ea4 b2b5 b78f d138
00000070: 0b32 67b7 dcba bab7 47e3 7138 b578 66b9
00000080: c48e 6539 c55f 66b9 98ef a539 fc4d 53b9
00000090: cf48 d438 4418 26b9 9b8b 99b8 8a28 afb9
000000a0: eabc 7bb9 0287 5f39 e0d7 e7b7 a695 b9b9
000000b0: 14b5 0e39 f4e8 cab8 e2de 8ab9 961b cbb9
000000c0: caf3 10ba c238 d139 cf94 da38 d0e1 12b8
000000d0: a4db cdb9 748b d238 8c65 0539 d8ee 66b9
000000e0: 624e 0839 a962 b639 9bab ddb8 ab40 60b9
000000f0: 2f08 63b9 9856 0d39 9277 4139 0fa0 fb38
00000100: 5424 c2b9 d2d7 80b9 c30a dd39 c0f1 e136
00000110: b6b9 ce39 2683 b5b9 9ac7 c0b8 4d0f edb9
00000120: ba51 9839 6f63 7239 04c4 683a 1059 b9b9
00000130: 98d8 46ba 1c52 3aba 72e2 ce39 0f77 4239
00000140: 71b6 e039 b040 9038 f7b1 04b9 a3d1 37b9
00000150: 193c f539 e764 cbb9 37da f739 f79a 1f39
00000160: 3e6d 073a 3aea 5a39 2f88 1139 7890 14b9
00000170: 7cfb 0eb7 0174 fdb8 e4dc 1139 a1eb 1639
00000180: 64d7 88b8 11e7 ec38 ad4b 5a38 8a80 9038
00000190: d803 d337 0172 f636 8179 1136 bbfb abb8
000001a0: 7c66 9b37 b81e eeb7 3a93 15b8 e3fe 0339
000001b0: 9eb5 4e38 4c80 7bb7 6d91 8eb8 df51 fd37
000001c0: caad c4b4 f391 1438 8c3d e1b7 b095 2838
000001d0: e0ba c837 f1e2 3938 f197 dd37 eec8 cc37
000001e0: 544d fdb7 7d05 cb35 0eeb 4ab8 c294 2d36
000001f0: 6e6a 0b34 2716 0437 fb0f 4c38 db98 18b7
00000200: 6a7b 39b6 b602 1138 06d8 b9b7 ed17 4eb7
00000210: f0e8 a7b6 5a6a da37 d2ee 57b8 7f26 03b8
00000220: bd96 0bb8 1c76 acb7 3d59 b0b6 bb2e 5e38
00000230: 68ea 5bb8 8ac3 b637 2371 7b38 f6c7 4cb8
00000240: be8e 9fb7 ba9c e337 fe59 d736 61d8 58b7
00000250: 5af5 3937 dade 1637 59d4 d4b7 b04f 4336
00000260: c48f 2fb7 5954 24b7 f8a3 0cb7 dc0d 1936
00000270: 0200 8d37 9a38 f0b6 f1c3 27b7 c8a1 dbb7
00000280: 3e2a a937 e989 5bb7 9939 3c37 05b2 afb7
00000290: ef15 aab7 1c90 8f38 e624 3837 4ad0 9237
000002a0: 5a84 4eb7 da1a 78b6 0456 83b7 8e43 8b37
000002b0: 10c9 be36 3c83 4338 b4b5 1ab8 32af 7db8
000002c0: 57a7 3db8 c3a5 f837 4993 1a37 58c3 f035
000002d0: 4f1d 87b5 30b9 a6b7 ee4f 0838 89d5 b937
000002e0: 88b8 2d37 00a4 1ab5 b43d 1636 3635 9237
000002f0: 2803 5f36 3476 e336 080c 3237 0f67 53b7
00000300: 1e7b fa36 849a c5b6 72a3 a337 ac79 8c37
00000310: 86b0 7fb6 7ffa ccb7 31b1 abb9 5753 6439
00000320: eb3c 353a e7b9 cf38 b0ef f1b7 3361 7d3a
00000330: 7862 2c3a 75f7 323a 4eb4 a43a 3167 0f3a
00000340: 603a eb39 f406 ee39 e54d 31b9 592a 0839
00000350: 666f 333a 21bc 8138 5995 6d3a d61b 5c3a
00000360: 686b 8c36 112e 03b9 5211 103a 1dc7 2739
00000370: 8452 7238 cca3 7ab7 dad0 e238 c643 0537
00000380: 569e 0437 d236 ad3a 73a8 f2b7 6630 c6b9
00000390: 2910 c938 9f73 41ba a12b c939 7caa 263a
000003a0: 1535 6c3a de9e a9ba 7be5 9cb9 bf19 8aba
000003b0: 7688 18ba d048 87ba 4f87 60ba d1d2 6f39
000003c0: 08ed 3cb9 c44a 99ba 2794 c339 f3a8 04ba
000003d0: 3a47 47ba 93a0 27ba 94b1 a1ba cc97 653a
000003e0: 946b 8b38 e950 e3b9 82ed 63ba 4b16 e037
000003f0: 8f2c 1cba cf20 23ba ca87 8b39 b68f 9e3a
9.128012e-05 -0.00013584345 0.00031927173 -0.00012205701 3.7697522e-05 0.00010555767 -0.00015144802 -0.00011259751
-8.8173554e-05 -0.00019683517 0.00037637082 0.00018313024 0.00018762637 -0.00015332061 -8.2317274e-05 -0.00032402843
5.749316e-06 1.5829246e-05 -1.6363098e-05 0.00021345718 -0.00025700522 3.2202628e-05 -6.0969433e-06 3.6380497e-05
-5.5134064e-05 1.9862805e-06 -1.3309834e-06 9.9926656e-05 -1.37803245e-05 -2.2259941e-05 5.7670546e-05 -0.00021979476
0.00021892326 -0.00021970186 0.00031649764 -0.0002015158 0.000101225094 -0.00015840033 -7.321612e-05 -0.00033408805
-0.00024007601 0.00021317232 -2.763787e-05 -0.00035397446 0.00013609632 -9.6755015e-05 -0.00026487472 -0.0003873973
-0.00055294915 0.00039905874 0.00010422768 -3.5019417e-05 -0.00039264292 0.000100395555 0.00012721698 -0.00022023486
0.0001299917 0.00034787253 -0.00010570065 -0.00021386395 -0.00021651456 0.00013479067 0.00018450458 0.00011998426
-0.0003702963 -0.0002457486 0.00042160423 6.733666e-06 0.00039429747 -0.00034620723 -9.192452e-05 -0.00045215563
0.0002905259 0.0002311596 0.0008879306 -0.00035352306 -0.00075853756 -0.0007107572 0.00039460097 0.00018545635
0.0004286054 6.878504e-05 -0.00012654798 -0.00017530336 0.00046774818 -0.00038794355 0.00047274094 0.0001522115
0.00051661197 0.00020877356 0.0001387901 -0.00014168199 -8.522413e-06 -0.000120855875 0.00013910566 0.00014392893
-6.525105e-05 0.000112963964 5.204573e-05 6.890397e-05 2.515495e-05 7.344643e-06 2.1677408e-06 -8.200804e-05
1.8525163e-05 -2.8386115e-05 -3.5661484e-05 0.00012588086 4.928337e-05 -1.4990637e-05 -6.798175e-05 3.0198074e-05
-3.6634293e-07 3.5421876e-05 -2.685075e-05 4.019373e-05 2.3928878e-05 4.4318793e-05 2.6416006e-05 2.441226e-05
-3.0195959e-05 1.5126276e-06 -4.8379465e-05 2.5865597e-06 1.2984103e-07 7.872971e-06 4.8652273e-05 -9.095495e-06
-2.7638985e-06 3.457322e-05 -2.2154312e-05 -1.22841275e-05 -5.0041053e-06 2.6037149e-05 -5.1482413e-05 -3.1268686e-05
-3.328057e-05 -2.0558997e-05 -5.2555974e-06 5.2972446e-05 -5.2431977e-05 2.1787146e-05 5.994843e-05 -4.882362e-05
-1.9020747e-05 2.713349e-05 6.417976e-06 -1.2924983e-05 1.1083985e-05 8.992583e-06 -2.5371251e-05 2.9103649e-06
-1.0464286e-05 -9.7948005e-06 -8.382827e-06 2.2806844e-06 1.6808513e-05 -7.1591467e-06 -9.999597e-06 -2.618217e-05
2.016604e-05 -1.3085527e-05 1.1219084e-05 -2.0944522e-05 -2.0275793e-05 6.845614e-05 1.0975846e-05 1.7501548e-05
-1.2309372e-05 -3.697051e-06 -1.5656471e-05 1.6601549e-05 5.685848e-06 4.6613844e-05 -3.6885685e-05 -6.0483064e-05
-4.521696e-05 2.9641093e-05 9.213408e-06 1.7938246e-06 -1.0066814e-06 -1.9874977e-05 3.2499367e-05 2.2153154e-05
1.0354568e-05 -5.760812e-07 2.2387658e-06 1.7429335e-05 3.3231427e-06 6.778888e-06 1.0612428e-05 -1.2600575e-05
7.4649133e-06 -5.8890455e-06 1.9507224e-05 1.6745958e-05 -3.8100711e-06 -2.4435341e-05 -0.0003274768 0.00021774821
0.00069136795 9.905156e-05 -2.8841052e-05 0.0009665668 0.0006575952 0.0006827035 0.0012565942 0.0005470394
0.00044866186 0.00045400078 -0.00016909053 0.00012985746 0.0006844908 6.186241e-05 0.0009063087 0.0008396482
4.184829e-06 -0.00012510295 0.0005495745 0.00016000537 5.7774145e-05 -1.4939298e-05 0.000108154214 7.9431975e-06
7.904679e-06 0.001321519 -2.8927088e-05 -0.00037801563 9.587437e-05 -0.00073795946 0.00038370214 0.00063578016
0.00090105954 -0.0012941023 -0.00029925615 -0.0010536237 -0.0005818674 -0.0010321382 -0.00085650844 0.00022871351
-0.00018017378 -0.0011695256 0.0003730368 -0.0005060576 -0.0007601861 -0.0006394472 -0.0012336248 0.0008758276
6.6480745e-05 -0.00043357097 -0.0008694754 2.6713262e-05 -0.00059575675 -0.00062228454 0.00026613317 0.0012097273
