Eunho/pytorch_stacking/.lr_find_25d5ce94-dabc-42a9-95e3-387669547669.ckpt (torch, 725128 bytes, 22 tensors)

_backbone.linear_layers.0.weight f4 [512, 68]
0	0xbd089c93	-0.033352446
1	0xbd8535da	-0.06504412
2	0x3e7a1a28	0.2442404
3	0xbe1695b1	-0.1470554
4	0x3d9ea7aa	0.07746823
5	0x3d927763	0.071516775
6	0x3cf2386c	0.02956792
7	0x3cf7c0b6	0.030243259
8	0xbe442d58	-0.19157922
9	0x3d6b5e85	0.057463188
10	0x3d1c8b0a	0.038218535
11	0x3e56ebf9	0.20988454
12	0x3e2c3ddc	0.16820472
13	0x3db3faca	0.087880686
14	0x3d8a3412	0.06748213
15	0xbe6dc096	-0.23217997
16	0x3ea91f0c	0.330315
17	0x3de10ebd	0.10989139
18	0xbda9fcd2	-0.08300175
19	0x3da9b402	0.08286287
20	0xbe1eb112	-0.15497234
21	0x3ce13c22	0.027494494
22	0x3d2fac5a	0.042888977
23	0x3e9bd9b5	0.30439535
24	0x3cd3eee0	0.02587074
25	0x3e4af86d	0.1982133
26	0xbe5dea71	-0.21671464
27	0xbb9f196a	-0.0048553245
28	0xbe087421	-0.1332555
29	0xbdb58a4f	-0.08864271
30	0x3e5b4039	0.21411218
31	0x3dffcdb2	0.12490405
32	0x3cb1161b	0.021616986
33	0x3d8e4b96	0.069480106
34	0x3c4fc1e7	0.012680507
35	0xbd6cc668	-0.057806402
36	0x3e978f9f	0.29601762
37	0x3edddaa9	0.43330887
38	0x3dba35c4	0.09092286
39	0xbdb84dfd	-0.0899925
40	0xbda35199	-0.07974548
41	0xbe2aa5b4	-0.16664773
42	0x3df1c794	0.11805645
43	0xbda59229	-0.080845185
44	0xbe29ef91	-0.16595294
45	0xbea63a76	-0.32466477
46	0x3e9be801	0.30450442
47	0xbc1ffe65	-0.009765242
48	0x3cac79c0	0.021054149
49	0x3dea6ccd	0.11446533
50	0x3e49bdd9	0.19701327
51	0x3dccc9c3	0.099994205
52	0xbe05fdd8	-0.13085115
53	0xbd2dbbff	-0.042415615
54	0x3db171fa	0.086643174
55	0xbda97ad6	-0.08275382
56	0x3cc35c4a	0.023847718
57	0x3d9c9908	0.07646376
58	0x3ea94727	0.33062097
59	0x3da3e10d	0.080019094
60	0x3e05d61f	0.13069962
61	0x3e73e2b5	0.2381695
62	0x3d5bc696	0.053656183
63	0xbdaa5b57	-0.08318203
64	0x3e6e938a	0.23298469
65	0xbe326000	-0.17419434
66	0xbd83afd2	-0.064300194
67	0xbda7b61e	-0.08189033
68	0xbad10d28	-0.0015949355
69	0xbe072b94	-0.13200217
70	0xbd750866	-0.059822462
71	0x3db58719	0.088636585
72	0x3e31b636	0.17354664
73	0xbeca5a5c	-0.39522064
74	0xbd949902	-0.072557464
75	0xbda6e142	-0.08148433
76	0xbebe83f3	-0.37210044
77	0x3d8071d2	0.062717095
78	0x3ea59979	0.32343653
79	0x3cc03c24	0.023466177
80	0x3cb859e4	0.0225038
81	0x3e090790	0.13381791
82	0xbe3f9025	-0.1870733
83	0x3e3b6f11	0.18304087
84	0x3d438b38	0.04774019
85	0x3e10841a	0.14112893
86	0xbd8b163e	-0.06791352
87	0x3e0167f2	0.12637308
88	0xbdacb55a	-0.084330276
89	0x3e26f018	0.16302526
90	0xbdd7885b	-0.105240546
91	0xbd88b579	-0.06675238
92	0x3e37a748	0.17934906
93	0xbe1e3560	-0.15450048
94	0x3dfedf12	0.12444891
95	0x3c068891	0.008211271
96	0xbcd9fd15	-0.026609937
97	0x3e2df339	0.16987313
98	0xbe8c5b20	-0.27413273
99	0xbc3099cc	-0.0107788555
100	0x3e22dcc1	0.15904523
101	0x3e8edaa4	0.27901185
102	0xbe779fa6	-0.24181995
103	0x3da08885	0.07838539
104	0x3e19c069	0.15014805
105	0x3d0212ee	0.031756334
106	0xbd8e2f29	-0.06942589
107	0x3e4c154a	0.19929996
108	0xbe98cd5c	-0.29844177
109	0xbdcdc0d6	-0.10046546
110	0x3e434399	0.19068755
111	0x3dabd236	0.08389704
112	0xbe4ddf6d	-0.20104761
113	0x3dfd1ce0	0.12359023
114	0x3e241c9c	0.16026539
115	0xbd87caff	-0.06630515
116	0x3e25ad2b	0.1617934
117	0xbdb3b87d	-0.08775423
118	0xbd4da998	-0.050210565
119	0xbd1f49bc	-0.038888678
120	0xbd90f990	-0.0707885
121	0x3ab6bcc6	0.0013941757
122	0xbe17d410	-0.14826989
123	0xbe2b9a31	-0.16758038
124	0xbea47469	-0.32120064
125	0xba23d351	-0.0006249445
126	0x3c0b978e	0.00852002
127	0x3d5584b0	0.052128494
128	0xbdc86265	-0.09784392
129	0xbd3c102d	-0.045913864
130	0xbb3fab47	-0.0029246376
131	0x3d562286	0.052279018
132	0xbe267a4a	-0.16257587
133	0xbd12ace1	-0.0358094
134	0x3e33c7c0	0.17556667
135	0x3d997184	0.074923545
136	0x3e4beb7a	0.19914046
137	0xbdacc928	-0.08436805
138	0x3d93e9c4	0.07222322
139	0xbe1c15eb	-0.15242736
140	0xbc5f5e62	-0.013633342
141	0x3efe53db	0.49673352
142	0xbddb7320	-0.10715318
143	0x3e18a1fb	0.1490554
144	0x3c3f798e	0.011686696
145	0xbdc17557	-0.09446209
146	0xbdfdd2da	-0.12393732
147	0x3e84fbc5	0.25973335
148	0xbda1326c	-0.07870945
149	0xbd65065b	-0.055914264
150	0xbe1246b0	-0.14284778
151	0x3d86d5c7	0.065837435
152	0x3e3a6b0b	0.18204896
153	0x3daf925c	0.08572838
154	0x3e5399e3	0.20664172
155	0xbe77954a	-0.24178043
156	0x3dfa685d	0.12226937
157	0xbd1698c8	-0.036766797
158	0xbcb96af0	-0.022634
159	0x3cd6f7b8	0.026241168
160	0xbb9f34da	-0.0048585953
161	0xbe2ef566	-0.170858
162	0x3e7d7300	0.247509
163	0x3dfec97a	0.12440772
164	0xbd5a9168	-0.053361326
165	0x3de8d08c	0.11367902
166	0x3e496ddf	0.19670819
167	0x3daa59d8	0.083179176
168	0x3e7e5257	0.24836098
169	0xbdfaab28	-0.12239677
170	0x3de479e3	0.111560605
171	0x3e5bc697	0.21462475
172	0xbcbf3be9	-0.023343997
173	0xbe634ffd	-0.22198482
174	0x3d4b1d5d	0.04958855
175	0x3ddfbf4b	0.10925158
176	0xbbcabc7b	-0.0061870194
177	0x3eb986c3	0.36235628
178	0x3e46a88c	0.19400233
179	0xbcc9062f	-0.024539081
180	0xbd574850	-0.052559197
181	0x3d987848	0.07444817
182	0xbcd91581	-0.026499512
183	0x3ddc9610	0.1077081
184	0xbdd973a8	-0.10617763
185	0x3e834e62	0.2564574
186	0x3ec5abc8	0.3860762
187	0x3e359632	0.17733076
188	0xbdc8a190	-0.097964406
189	0xbd9fcb22	-0.078024164
190	0x3e9180fe	0.28418726
191	0x3dba685d	0.09101937
192	0x3c76d468	0.01506529
193	0x3b60fb3b	0.0034329433
194	0xbdf6ec74	-0.120568186
195	0x3e577af9	0.21043004
196	0xbc714019	-0.014724755
197	0xbe15888d	-0.14602871
198	0xbdb318c1	-0.08744956
199	0x3d7aaebb	0.061201792
200	0xbda3c080	-0.07995701
201	0x3db7cdcb	0.08974799
202	0xbddc7a20	-0.10765481
203	0x3d2600e0	0.04052818
204	0xbd804e64	-0.06264952
205	0xbdae5f85	-0.08514313
206	0x3e4ee3a1	0.20204021
207	0xbe5b1b30	-0.2139709
208	0xbd3c7f78	-0.04602
209	0x3e2632da	0.16230336
210	0xbde558d8	-0.11198586
211	0xbe1dcf99	-0.15411223
212	0x3e507c0f	0.20359825
213	0xbd8d3b0d	-0.06896029
214	0xbdd6642f	-0.10468327
215	0x3dd0f852	0.10203613
216	0x3e58efa7	0.2118517
217	0x3ef883ad	0.4853796
218	0x3b8cd8ad	0.0042982907
219	0x3e367aeb	0.17820327
220	0x3dc7b800	0.09751892
221	0xbda0e78f	-0.07856666
222	0x3b3e4337	0.0029031762
223	0xbe5428f0	-0.20718741
224	0x3e342206	0.17591104
225	0x3e921f18	0.28539348
226	0x3d5e0047	0.054199483
227	0xbea2c6c7	-0.3179228
228	0x3db0d938	0.08635181
229	0x3e3b6300	0.18299484
230	0xbde4b15e	-0.111666426
231	0xbe2b2513	-0.16713361
232	0x3e911295	0.2833449
233	0x3e937272	0.28798252
234	0xbe684bf4	-0.22685224
235	0x3db25ebe	0.08709477
236	0x3de850ca	0.11343534
237	0x3e0e9508	0.13924038
238	0x3e2dd865	0.16977079
239	0xbe10cd38	-0.14140785
240	0x3e188c81	0.14897348
241	0xbdbf5a05	-0.09343342
242	0xbdedcd70	-0.1161145
243	0x3d47e29c	0.048800096
244	0x3e0c50ae	0.13702652
245	0x3e5db1d5	0.21649869
246	0x3e0d4e6f	0.13799451
247	0xbdec8add	-0.115499236
248	0xbe22b491	-0.15889193
249	0x3e6bee0f	0.23040031
250	0x3dae7f49	0.085203715
251	0xbe5e5675	-0.21712668
252	0x3e82b7d9	0.2553089
253	0xbe2205b3	-0.15822487
254	0x3e0e0d34	0.13872224
255	0xbc3ecb16	-0.011645099

_backbone.linear_layers.0.bias f4 [512]
0	0xbdba85f0	-0.09107578
1	0x3dafcc50	0.085838914
2	0x3dcf467d	0.101208664
3	0xbdb4b2d2	-0.0882317
4	0xbce6d44a	-0.0281774
5	0xbdb284d8	-0.08716744
6	0x3d6c673f	0.05771565
7	0x3dd92201	0.10602189
8	0x3c0f3ae6	0.00874207
9	0xbd4fe6f5	-0.050757367
10	0xbddd52ec	-0.10806832
11	0x3d8eb260	0.06967616
12	0xbd12fb9d	-0.03588449
13	0xbdabc487	-0.08387094
14	0x3dd1a1c4	0.102359325
15	0xbde82e8e	-0.113370046
16	0x3dd208c6	0.1025558
17	0xbda26fe2	-0.07931496
18	0x3d0e6d3e	0.03477215
19	0xbbbe48ac	-0.005807003
20	0x3cdc186c	0.026867114
21	0x3df5d8a1	0.12004209
22	0xbd87cd7d	-0.06630991
23	0x3dc777ed	0.09739671
24	0x3dafab88	0.08577639
25	0xbde98f66	-0.11404304
26	0x3d99ae9b	0.075040065
27	0x3d6b9092	0.05751092
28	0x3dee354d	0.1163126
29	0x3d84a47b	0.06476685
30	0x3cfbbdb0	0.030730098
31	0x3d3892b7	0.045061793
32	0x3dcb8b70	0.09938705
33	0x3c8e8ab2	0.01740012
34	0x3d93a33c	0.07208869
35	0xbcc5d3cd	-0.024148846
36	0xbc4362ca	-0.011925409
37	0xbdc1d0e0	-0.09463668
38	0xbd82aae2	-0.063802496
39	0xbcd501cd	-0.026001835
40	0xbc3b3e8f	-0.011428489
41	0x3d9d4b08	0.07680327
42	0x3ab6be36	0.0013942185
43	0xbd6670e9	-0.056260023
44	0xbde7cae3	-0.113179944
45	0xbc12edb3	-0.008967805
46	0x3db5ed52	0.08883156
47	0x3bac5369	0.0052589667
48	0xbd698d98	-0.0570198
49	0xbda8eea4	-0.08248642
50	0xbd2c44dc	-0.042057857
51	0x3c685960	0.014181465
52	0xbdd0d8ec	-0.101976246
53	0xbc93201d	-0.017959649
54	0xbd79c3e9	-0.06097785
55	0x3dd4be98	0.103879154
56	0x3d981b5c	0.074270934
57	0x3d22f41d	0.039783586
58	0x3b6f9f14	0.0036563324
59	0xbd9b5494	-0.07584491
60	0x3dab7ed4	0.083738
61	0xbadac844	-0.0016691764
62	0x3ded91b4	0.11600056
63	0xbdcdaae8	-0.100423634
64	0x3d9203d7	0.07129639
65	0xbdec9442	-0.115517154
66	0xbdea76f5	-0.114484705
67	0x3bcfce40	0.0063417256
68	0x3c251ced	0.010077697
69	0xbd9a8011	-0.07543958
70	0x3d931ca9	0.07183201
71	0xbda35978	-0.07976049
72	0x3dd5e783	0.10444548
73	0xbce89431	-0.028390976
74	0x3ba58c30	0.005052112
75	0xbcb672b1	-0.022271486
76	0x3c02bd7e	0.007979749
77	0x3d90e980	0.070757866
78	0x3d5bbf88	0.053649455
79	0x3cb63755	0.022243181
80	0xbd89cc5c	-0.067284316
81	0x3dafdf2f	0.08587491
82	0x3df27c3c	0.11840102
83	0xbdc4b418	-0.09604663
84	0x3caf5cc4	0.021406539
85	0xbcafe477	-0.021471245
86	0x3dd478c2	0.10374595
87	0x3dd06d92	0.10177149
88	0xbdeec98d	-0.116595365
89	0xbdf428c4	-0.11921838
90	0xbdb39f16	-0.087705776
91	0x3d2ec1ca	0.04266528
92	0xbde6d7e5	-0.11271647
93	0xbb856b90	-0.0040716603
94	0x3ddfc15e	0.10925554
95	0x3d888c55	0.06667391
96	0x3da7502f	0.08169591
97	0x3d8af749	0.06785447
98	0x3b2a98a9	0.0026030934
99	0xbda21c20	-0.07915521
100	0xbd4ebf52	-0.050475426
101	0x3d964530	0.07337415
102	0xbcc8c23d	-0.024506683
103	0xbcd07753	-0.025447523
104	0xbd09c193	-0.033631872
105	0xbdf0e7ca	-0.1176296
106	0x3dc73f11	0.09728826
107	0xbd18b56c	-0.037282392
108	0x3d46455f	0.048406
109	0xbde64b4b	-0.1124483
110	0xbc0dedd6	-0.008662662
111	0xbd980ae4	-0.07423952
112	0xbd77952f	-0.060445007
113	0x3ceb1ef9	0.028701292
114	0xbdaa767d	-0.08323381
115	0x3d9b6853	0.07588258
116	0x3d51c3e3	0.051212203
117	0xbd80b373	-0.06284227
118	0xbda47f68	-0.08032113
119	0xbd3544fe	-0.04425525
120	0x3d73b998	0.059503168
121	0x3a19c09f	0.00058651896
122	0xbdd3e746	-0.10346846
123	0xbdb78e9a	-0.08962746
124	0xbd075452	-0.0330394
125	0x3def54f8	0.116861284
126	0xbd97553f	-0.07389306
127	0x3de5edf1	0.11227024
128	0x3d6ea48a	0.058262385
129	0xbdca1dc7	-0.09868961
130	0x3c29e79c	0.010370161
131	0x3dc2ab25	0.095052995
132	0xbdb900d5	-0.09033362
133	0x3d4f2db4	0.050580695
134	0x3d19b8d4	0.03752978
135	0x3cb5d970	0.022198409
136	0xbd53738e	-0.051623873
137	0xbc8d7cff	-0.017271517
138	0x3d8626c3	0.06550362
139	0xbdaa1a78	-0.0830583
140	0xbdc0d56f	-0.09415709
141	0x3d182238	0.03714201
142	0x3c11361a	0.0088629965
143	0xbd889c61	-0.06670452
144	0xbdce295c	-0.100664824
145	0x3d119fa6	0.035552643
146	0xbc9032f4	-0.017602421
147	0xbd8cde0e	-0.06878291
148	0x3d8f305b	0.06991645
149	0x3d89f4c5	0.06736139
150	0x3d510fb3	0.051040363
151	0xba568aad	-0.00081841165
152	0xbd9bb290	-0.076024175
153	0xbddb0d7d	-0.10695932
154	0xbdda8070	-0.10669029
155	0x3dc7ee14	0.09762207
156	0x3b8015f8	0.003908869
157	0xbd9d0360	-0.07666659
158	0xbd4519d3	-0.04812033
159	0x3d33340d	0.04375081
160	0x3dd6d53e	0.104898915
161	0xbdf7fc5a	-0.12108679
162	0xbda24ac7	-0.07924419
163	0x3debf5b4	0.115214735
164	0x3da4516c	0.080233425
165	0x3d30edd5	0.043195564
166	0xbda503f0	-0.08057392
167	0xbda4fa0a	-0.08055504
168	0x3b325db2	0.0027216491
169	0xbdcf1955	-0.101122536
170	0x3df2a439	0.11847729
171	0x3df7eecb	0.12106093
172	0x3db7f7cb	0.0898281
173	0xbdd545d3	-0.104137085
174	0x3d6a4c7c	0.057201847
175	0xbda44452	-0.080208436
176	0xbd7ec3c1	-0.062198404
177	0xbdb6722f	-0.089084975
178	0x3d922f4b	0.07137927
179	0x3dc04e29	0.09389908
180	0xbd7d9e0b	-0.0619183
181	0x3d1e618f	0.038667258
182	0xbca816f1	-0.020518752
183	0x3d91b5d2	0.071147576
184	0xbdf4c088	-0.11950785
185	0x3dad017c	0.08447549
186	0xbdca5047	-0.09878593
187	0x3b1e7a25	0.002418169
188	0xbcbefe3e	-0.023314591
189	0xbc885f1f	-0.01664692
190	0x3d93a671	0.072094806
191	0x3d58a894	0.052895144
192	0xbda51830	-0.08061254
193	0x3dc22e7b	0.09481522
194	0xbd6b9168	-0.057511717
195	0x3ddd0062	0.10791089
196	0xbdcf5d69	-0.101252384
197	0x3d1b4b8f	0.037913855
198	0x3bffe4fe	0.0078092804
199	0x3deb065a	0.11475821
200	0xbd94d853	-0.07267823
201	0x3db41ab8	0.08794159
202	0x3dae216b	0.08502468
203	0x3b7dc1f4	0.0038720341
204	0x3df2ab13	0.11849036
205	0xbdb97c6d	-0.090569355
206	0xbc733952	-0.014845209
207	0x3bce014f	0.006286777
208	0xbd7048cb	-0.05866317
209	0xbd0814dd	-0.03322302
210	0x3da2a761	0.07942081
211	0x3d9e822a	0.077396706
212	0xbd988649	-0.07447488
213	0x3d74d8a2	0.05977691
214	0x3c8c2052	0.017105255
215	0xbdecb8fb	-0.1155872
216	0x3d8ad6bf	0.06779241
217	0x3ca81b7e	0.020520922
218	0xbcd3a5ab	-0.025835833
219	0x3de116ae	0.10990654
220	0xbcf3a29d	-0.029740626
221	0xbd92aaf2	-0.071615115
222	0x3ce97c35	0.02850161
223	0x3dd07c88	0.101800025
224	0xbc9cb79b	-0.019130519
225	0x3c3ededd	0.011649814
226	0xbdd2cc54	-0.10292879
227	0xbcb86f9f	-0.022514163
228	0xbd41725d	-0.047228206
229	0x3dafbec8	0.085813105
230	0xbc071efa	-0.0082471315
231	0xbd5b8014	-0.05358894
232	0xbbf4b696	-0.007468055
233	0x3d63890a	0.055550613
234	0x3ca01bbb	0.019544473
235	0x3de8a7de	0.11360143
236	0xbd522c5c	-0.051311836
237	0xbdf6f1c0	-0.12057829
238	0x3c673074	0.014110673
239	0xbd043b36	-0.03228303
240	0x3ba1ae48	0.004934106
241	0x3ba05600	0.0048930645
242	0xbcec4288	-0.028840318
243	0xbd2f4b75	-0.04279657
244	0xbd827997	-0.06370848
245	0x3da8e2d1	0.08246387
246	0x3d8f4ae2	0.06996705
247	0x3d5e7365	0.054309268
248	0x3ba20f6a	0.004945685
249	0x3d6cf949	0.057854924
250	0xbdef8b86	-0.11696534
251	0x3df1c8b1	0.11805857
252	0xbde20b24	-0.11037281
253	0x3dab753f	0.08371972
254	0xbb1f3b34	-0.0024296762
255	0xbd56e83c	-0.05246757

_backbone.linear_layers.3.weight f4 [256, 512]
0	0x3d35b842	0.044365175
1	0xbcd080de	-0.025452074
2	0x3d70ac09	0.058757816
3	0x3ccc63e4	0.024949975
4	0xbd38ce08	-0.04511836
5	0xbd5fee34	-0.054670528
6	0xbcbeacef	-0.02327582
7	0xbc0a385c	-0.008436289
8	0xbd293d0b	-0.04131798
9	0xbdd19b76	-0.1023473
10	0xbdb237bb	-0.08702036
11	0xbd1af4cc	-0.037831113
12	0xbdff9a5f	-0.12480616
13	0xbd239098	-0.039932817
14	0xbd4b30be	-0.04960703
15	0xbc92c655	-0.017916838
16	0xbcb5bb76	-0.022184115
17	0x3da189e5	0.078876294
18	0x3c91b211	0.017785104
19	0xbd904f9b	-0.070464335
20	0xbd87c409	-0.066291876
21	0x3bc14729	0.0058983755
22	0x3c99b75d	0.018764192
23	0x3c3552ae	0.011067076
24	0x3cc8cd19	0.02451186
25	0xbd97e698	-0.07417029
26	0xbdcd9fe7	-0.100402646
27	0x3d5a35ae	0.05327385
28	0xbd48e3f8	-0.049045533
29	0xbd3ab289	-0.04558042
30	0x3d0ebbba	0.034847
31	0xbd46d6e0	-0.048544765
32	0xbcfc05ec	-0.030764543
33	0xbd175c06	-0.036952995
34	0x3e09b32b	0.13447253
35	0x3c838b03	0.016057497
36	0x3c5831ae	0.013195438
37	0xbc4af469	-0.0123873735
38	0xbd30a4cc	-0.043125913
39	0x3d181936	0.037133418
40	0xbd4220ca	-0.04739455
41	0x3d49002f	0.04907244
42	0xbb5e0c07	-0.003388168
43	0x3ccce826	0.02501304
44	0x3dfb2027	0.12261992
45	0x3c888c53	0.016668474
46	0x3caa938c	0.020822309
47	0xbcc09dd8	-0.023512766
48	0xbcae0ee3	-0.021247333
49	0x3c1fe442	0.009759011
50	0x3ca9ff12	0.02075151
51	0x3d9a3da7	0.075312905
52	0x3c6b60e0	0.0143663585
53	0xbd8c8c1f	-0.068626635
54	0x3c37fc58	0.011229597
55	0xbd41b55b	-0.047292095
56	0xbda08227	-0.078373246
57	0x3c8c87f2	0.017154668
58	0x3d3df945	0.0463803
59	0x3c9f603a	0.019455064
60	0xbc2092c4	-0.009800617
61	0x3cf8f1a9	0.03038867
62	0xbdc2299a	-0.09480591
63	0xbc5613bc	-0.0130662285
64	0x3d4c755e	0.049916618
65	0x3d3692fb	0.044573765
66	0x3ca5eb86	0.020253908
67	0x3e035655	0.12825902
68	0xbd822373	-0.06354418
69	0xbcb7dfb4	-0.022445537
70	0x3ca4de73	0.020125603
71	0x3cc7c78d	0.024387145
72	0xbdc3974b	-0.09550341
73	0xbc08e280	-0.008354783
74	0x3c3b278c	0.011423003
75	0x3c462646	0.012094086
76	0xbd51618e	-0.051118426
77	0xbbc25495	-0.005930493
78	0xbcfa5511	-0.030558141
79	0xbce33a2a	-0.027737696
80	0x3c7d7a99	0.015471124
81	0xbc776c10	-0.015101448
82	0xbe010efb	-0.12603371
83	0xbd8b4127	-0.06799536
84	0x3af11472	0.0018392934
85	0x3d29665d	0.041357387
86	0xbc53324a	-0.012890408
87	0x3d3916da	0.04518781
88	0x3e105c2b	0.1409766
89	0xbdc4541a	-0.095863536
90	0xbca66b15	-0.020314733
91	0x3aff2492	0.0019465855
92	0x3ddce0fd	0.107851006
93	0xbd135c65	-0.035976786
94	0xbd995e6e	-0.07488714
95	0x3d9e0caf	0.07717263
96	0xbb522802	-0.0032067304
97	0x3c8c5ac7	0.01713313
98	0x3d9f7a74	0.07787028
99	0x3c863844	0.016384251
100	0x3d2da4b2	0.042393394
101	0x3de9af66	0.11410408
102	0x3d87273f	0.065992825
103	0xbda9ca22	-0.08290507
104	0x3dc71282	0.09720327
105	0xbca01482	-0.019541029
106	0x3b7a2082	0.0038166349
107	0x3d91fff7	0.071288995
108	0x3c7a77a8	0.015287317
109	0x3a3de0fc	0.0007243303
110	0xbd84d352	-0.06485619
111	0xbd1378f7	-0.036004033
112	0xbcef1a97	-0.029187484
113	0xbd8020e9	-0.06256277
114	0xbddd5d4b	-0.1080881
115	0xbcfd06a3	-0.030886954
116	0x3d21a672	0.039465375
117	0xbc8ddf92	-0.01731852
118	0xbc8eea2a	-0.017445643
119	0x3d501f14	0.05081089
120	0x3d488dc8	0.048963338
121	0xbb1e56df	-0.0024160666
122	0xbce781f3	-0.028260207
123	0xbd25607b	-0.040375214
124	0x3d84ccbc	0.064843625
125	0x3e1205b6	0.14259991
126	0xbd436a37	-0.047708716
127	0x3d0241c8	0.031801015
128	0x3ddfe406	0.10932164
129	0xbc552f00	-0.013011694
130	0x3d5fbe58	0.054624885
131	0x3d7cd69a	0.061728097
132	0xbd267197	-0.04063567
133	0xb9b4343f	-0.00034371202
134	0x3dc97de1	0.098384626
135	0xbe20ba10	-0.15695977
136	0x3d936822	0.07197596
137	0xbd511e6a	-0.051054396
138	0x3d8b947e	0.06815432
139	0xbcfef7f9	-0.031124102
140	0xba808638	-0.0009805625
141	0x3c941c0d	0.018079782
142	0x3d4cfbd0	0.050044835
143	0xbdc3347a	-0.095314935
144	0xbcb941d1	-0.022614392
145	0xbd73b6a2	-0.059500344
146	0x3dcc867f	0.099865906
147	0x3e039246	0.12848768
148	0xbc8a465d	-0.016879255
149	0x3ccae406	0.024766933
150	0xbd248ad7	-0.04017147
151	0x3d501017	0.050796594
152	0xbd0b5ec4	-0.034025922
153	0x3d0dd876	0.03463026
154	0x3d60745d	0.054798473
155	0xbc35c502	-0.011094334
156	0x3b25eb10	0.002531711
157	0x3d0a686b	0.033790987
158	0xbd07f861	-0.033195857
159	0x3d0a6a5b	0.033792835
160	0xbce638f7	-0.028103335
161	0x3d5e0863	0.054207217
162	0x3dd77903	0.10521128
163	0x3e13894c	0.14407843
164	0xbdc1a0d8	-0.09454507
165	0x3be9a35c	0.0071300697
166	0x3d09c51a	0.033635236
167	0x3dcfcdc3	0.10146668
168	0xbcd0ad8d	-0.02547338
169	0xbd78fe23	-0.06078924
170	0x3de74ae7	0.11293583
171	0xbc2b4428	-0.010453261
172	0xbc04516a	-0.008076051
173	0x3c63d32c	0.013905328
174	0x3cb3487e	0.021885153
175	0x3dac6eb7	0.08419555
176	0x3beded54	0.0072609577
177	0xbc59049d	-0.013245729
178	0xbc867b62	-0.016416255
179	0x3d1268cd	0.035744477
180	0x3d227556	0.03966268
181	0xbd850bf3	-0.0649642
182	0x3c693565	0.014233922
183	0x3cbc94ad	0.023020113
184	0x3cb65f41	0.022262217
185	0xbacc2904	-0.0015576188
186	0x3d6d7637	0.057974067
187	0x3d1a171d	0.0376197
188	0x3e382c51	0.17985655
189	0x3d4cb9e8	0.04998198
190	0x3d01530c	0.03157334
191	0x3bbcee41	0.0057657068
192	0xbdb3300d	-0.08749399
193	0xbcc1f59a	-0.023676682
194	0xbc9a7e7f	-0.018859146
195	0x3da90c20	0.08254266
196	0xbd32aadc	-0.043619975
197	0x3da6bd3b	0.081415616
198	0x3943bbd7	0.00018666625
199	0x3c6aad33	0.0143235205
200	0x3d050a86	0.03248074
201	0xbda11219	-0.0786478
202	0x3d23903f	0.039932486
203	0xbd960920	-0.07325959
204	0x3d2e75a5	0.042592663
205	0xbdbdd768	-0.09269601
206	0x3d0bdcab	0.034145992
207	0x3d661a6b	0.056177538
208	0xbc8a6a21	-0.01689631
209	0x3dc11fd8	0.09429902
210	0x3c9c154b	0.019053122
211	0x3d7aff89	0.061278854
212	0xbd325599	-0.043538664
213	0xbdd00a1d	-0.10158179
214	0xbca6ba59	-0.02035253
215	0xbc9e7dd9	-0.019347118
216	0x3d47a926	0.048745297
217	0x3dd37431	0.10324896
218	0x3c7b3f48	0.015334912
219	0xbe1aa7c1	-0.15103056
220	0x3d137d12	0.03600795
221	0x3d3e44a5	0.046452183
222	0x3cb4a20c	0.022049926
223	0x3d689b70	0.05678886
224	0xbd8d6983	-0.069048904
225	0xbccd2d7f	-0.025046108
226	0x3db4b6a2	0.08823897
227	0xbcb8472c	-0.022494875
228	0xbb43ebb1	-0.0029895122
229	0xbc1a1a57	-0.009405694
230	0xbb0c50b5	-0.002141041
231	0x3d43c946	0.04779937
232	0x3cfe4815	0.03104023
233	0xbcb97d54	-0.022642769
234	0x3cba2389	0.022722023
235	0x3b22bdd7	0.0024832392
236	0x3bbbaa51	0.0057270904
237	0x3d60679b	0.054786306
238	0xbdd6de49	-0.10491616
239	0xbc70206b	-0.014656167
240	0x3d9b76a5	0.07590989
241	0xbd32a0fd	-0.04361056
242	0x3abe5546	0.0014521263
243	0x3ddc9834	0.10771218
244	0x3d00157a	0.03127048
245	0x3d316678	0.043310612
246	0xbc248574	-0.010041583
247	0xbc17cd90	-0.0092653185
248	0x3d52212d	0.05130117
249	0xbcbe4ef1	-0.023231002
250	0x3d2e2f24	0.042525426
251	0xbd9769d6	-0.073932335
252	0x3dfb5aa3	0.12273147
253	0x3cd1efcd	0.025627041
254	0xbae2db80	-0.0017307848
255	0xbe21ca68	-0.15799868

_backbone.linear_layers.3.bias f4 [256]
0	0x3c163708	0.009168394
1	0xbc4e8a8d	-0.012606275
2	0x3ca59da0	0.020216763
3	0x3c54418e	0.012955083
4	0xbcdf664f	-0.027270464
5	0x3d062211	0.032747332
6	0x3bc31551	0.005953469
7	0xbc2d1509	-0.010564097
8	0xbbc2d0e7	-0.0059453133
9	0xbd1ffcaf	-0.039059337
10	0x3c99adb8	0.018759593
11	0xbb0af729	-0.0021204448
12	0x3c34d357	0.0110367155
13	0xbb95d222	-0.004572169
14	0xbc95560c	-0.018229507
15	0xbcf100a0	-0.029419243
16	0xbc62adde	-0.0138353985
17	0xbcebd0ee	-0.028786149
18	0x3a43f118	0.00074745854
19	0xbbac8742	-0.0052651474
20	0xbbebea36	-0.007199551
21	0xbd0d0d26	-0.034436367
22	0x3b90c657	0.004418175
23	0x3cdb5def	0.02677819
24	0x3d0f4c42	0.034984834
25	0x3d0c9aa7	0.034327175
26	0x3d197bcc	0.037471578
27	0x3c4ba2eb	0.012428979
28	0xbc06ac7e	-0.008219836
29	0xbc8a339d	-0.016870314
30	0x3c98d172	0.018654559
31	0xbc934c80	-0.017980814
32	0x3b7ce658	0.0038589444
33	0xbcceb253	-0.025231516
34	0xbd25517f	-0.040360924
35	0xbd2a7fb6	-0.0416257
36	0xbc4cea32	-0.012507008
37	0xbceb1f29	-0.028701382
38	0xbd06f807	-0.03295138
39	0xbd054d14	-0.03254421
40	0xbd056b45	-0.032573003
41	0x3ccf5810	0.025310546
42	0xbd1f58b8	-0.03890297
43	0xbd03f9d1	-0.032220665
44	0xbd28effa	-0.041244484
45	0xbbe2daae	-0.0069230413
46	0x3a9d4840	0.0011999682
47	0xbb519880	-0.0031981766
48	0xbd10ef4e	-0.03538447
49	0x3b7a49c6	0.0038190945
50	0xbb2de4f8	-0.002653418
51	0xbc28c82e	-0.010301633
52	0xbce62eaa	-0.028098423
53	0xbc35e2f0	-0.011101469
54	0x3ad707bb	0.0016405502
55	0x3bc2f44e	0.0059495335
56	0x3d04f4bf	0.03245997
57	0x3d1e01d5	0.038575966
58	0x3b8e35b4	0.004339898
59	0x3b52ef9f	0.0032186282
60	0xbce87b28	-0.028379038
61	0x3c58a1e0	0.013222188
62	0x3bfd2f38	0.007726576
63	0x3d244b9e	0.040111177
64	0x3d01e366	0.031711005
65	0xbd223ef0	-0.039610803
66	0x3c8154af	0.01578745
67	0x3d0c7c10	0.034298003
68	0x3c43747d	0.011929628
69	0x3c958698	0.018252656
70	0x3b927010	0.0044689253
71	0xbd2330bf	-0.03984141
72	0x3c96bec8	0.018401518
73	0xbc151972	-0.009100305
74	0x3bc4df91	0.0060080965
75	0x3c48584a	0.012228081
76	0x3cb8918f	0.022530345
77	0x3cdef4f1	0.027216407
78	0xbd2f9237	-0.04286405
79	0x3cfb0b4f	0.03064504
80	0xbce6226c	-0.028092586
81	0xbbef5a78	-0.007304486
82	0xbc5be4f2	-0.013421284
83	0xbd191b59	-0.037379596
84	0xbcd98fda	-0.026557852
85	0xbd32c1b1	-0.04364175
86	0x3b6071e8	0.003424758
87	0xbbcbbb01	-0.006217361
88	0xbca87608	-0.020564094
89	0x3cc254f6	0.023722153
90	0x3b9661e6	0.004589307
91	0x3d0f7f73	0.035033654
92	0xbd0bc6c6	-0.034125112
93	0x3cf1ca75	0.029515484
94	0x3d2bddf8	0.041959733
95	0xbca1e557	-0.019762678
96	0x3cb1e8d6	0.02171747
97	0x3c1dd218	0.00963261
98	0xbd2ba092	-0.04190118
99	0xbcb834f3	-0.022486186
100	0x3cef1c39	0.029188262
101	0xbd0002bc	-0.031252608
102	0x3d30b0f4	0.043137506
103	0x3cabee6a	0.020987708
104	0x3c8ff429	0.01757248
105	0xbc7b6bdd	-0.015345541
106	0xbd201e5a	-0.039091446
107	0xbcff5734	-0.031169511
108	0xbce29516	-0.02765898
109	0x3c89feca	0.016845126
110	0xbd125b34	-0.03573151
111	0xbccd1089	-0.025032299
112	0x3c849942	0.01618636
113	0x3a65aa83	0.0008761065
114	0x39c86603	0.00038222977
115	0xbccb608f	-0.024826316
116	0x3c5cad04	0.0134689845
117	0xbd089b67	-0.03335133
118	0xbd0035fb	-0.03130148
119	0xbcab3162	-0.020897571
120	0x3cb02bec	0.021505319
121	0xbd1fb576	-0.038991414
122	0xbc694385	-0.014237289
123	0xbcd5b252	-0.026086006
124	0xbca1512b	-0.019692024
125	0x3c4739de	0.012159793
126	0x3ab17824	0.0013539833
127	0x3c348f37	0.011020473
128	0xbcff846a	-0.03119107
129	0xbce8f552	-0.02843729
130	0xbcb836c9	-0.022487061
131	0x3b959faa	0.0045661526
132	0x3d218aab	0.039438885
133	0xbd181218	-0.03712663
134	0xbd1784ae	-0.036991768
135	0x3ca9d5b2	0.02073178
136	0xbc34a9bc	-0.011026796
137	0x3d191964	0.03737773
138	0x3bc5e86c	0.0060396697
139	0xbc571038	-0.013126425
140	0xbb36e513	-0.0027907535
141	0x3d041788	0.032249004
142	0x3c384a84	0.011248235
143	0x3cc4753f	0.023981689
144	0xbc0d60d1	-0.00862904
145	0x3c80b105	0.01570941
146	0x3cc493c9	0.02399625
147	0x3a36ff3d	0.00069807825
148	0xbcc8a815	-0.02449421
149	0xbccf9ae8	-0.02534242
150	0xbcc8f84e	-0.024532463
151	0x3ce15c44	0.027509816
152	0xbd24e980	-0.040261745
153	0xbc22282f	-0.009897276
154	0x3c88574c	0.016643189
155	0x3ca81898	0.02051954
156	0xba79c25d	-0.00095275586
157	0x3c94e744	0.018176682
158	0xbc693123	-0.0142329065
159	0x3bde3e63	0.0067823394
160	0x3ccdb14a	0.025108952
161	0xbcfc3fa1	-0.03079206
162	0xbd0b4d42	-0.034009226
163	0x3d10bf8e	0.03533893
164	0x3cea1005	0.028572092
165	0xbd256df5	-0.040388066
166	0xbc679aa3	-0.014135989
167	0xbca1e0e6	-0.01976056
168	0xbc992b3a	-0.01869737
169	0x3bc9f24d	0.0061629177
170	0xbc47f1d9	-0.012203657
171	0xbbb23ba8	-0.0054392405
172	0xbc954453	-0.018221056
173	0xbd3276ad	-0.04357021
174	0x3d0513a7	0.032489445
175	0x3d0f9758	0.035056442
176	0xbc37a7cb	-0.011209439
177	0x3d01f954	0.03173192
178	0xbc51d0de	-0.0128061455
179	0xbc7ccb35	-0.015429308
180	0xbd20db0e	-0.039271407
181	0x3c6c7ba7	0.014433778
182	0x3ce82c7a	0.02834152
183	0x3d239cd3	0.03994448
184	0xbd2bb0bb	-0.04191659
185	0x3b1fd626	0.0024389117
186	0xbcb52d5d	-0.022116357
187	0x3c6833dc	0.0141725205
188	0xbd2e886b	-0.042610567
189	0x3cb9873f	0.022647498
190	0x3c3405d1	0.010987715
191	0xbc41bcb1	-0.011824773
192	0xbd309dac	-0.043119118
193	0xbcabaf10	-0.0209575
194	0xbcabfc78	-0.02099441
195	0x3c2f19bb	0.010687287
196	0xb9ee6c0b	-0.00045475396
197	0xbc5830ea	-0.013195256
198	0xbd264b49	-0.04059914
199	0xbc2d207b	-0.010566826
200	0x3d320986	0.043466114
201	0x3cee9377	0.029123051
202	0xbd0fe832	-0.035133548
203	0x3c53eff3	0.012935626
204	0xbd2df8b3	-0.042473506
205	0x3bd22646	0.006413254
206	0xbd056721	-0.032569055
207	0x3d26f036	0.040756427
208	0xbcd17d96	-0.02557258
209	0xbd30797a	-0.0430846
210	0x3d0a14dc	0.0337113
211	0x3c8d0d5b	0.017218282
212	0xbd04a60a	-0.03238491
213	0x3c7ac9c8	0.015306897
214	0x3d293fe2	0.04132069
215	0xbc465d18	-0.012107156
216	0x3d15d985	0.036584396
217	0x3cf8acd5	0.03035585
218	0xbc932d5b	-0.017965963
219	0x3bf23f2a	0.0073927836
220	0xb9d31ac2	-0.00040264992
221	0x3a7f68c0	0.0009743087
222	0x3c8d0e54	0.017218746
223	0xbd1ada8e	-0.037806086
224	0xbd035ecd	-0.03207283
225	0x3d1e3c16	0.03863152
226	0x3ade272f	0.0016948933
227	0x3c57549b	0.01314273
228	0x3be8854f	0.0070959697
229	0xbcc38e14	-0.023871459
230	0xbd1ab960	-0.037774444
231	0x3c5238ae	0.012830896
232	0xbd1ed016	-0.038772665
233	0x3ca35ddd	0.019942218
234	0x3d19ba18	0.03753099
235	0x3c90d073	0.017677521
236	0x3b11c453	0.0022242262
237	0x3c094154	0.008377392
238	0xbbf5d07b	-0.0075016594
239	0xbd0a1b92	-0.0337177
240	0xbc300182	-0.010742547
241	0x3cf8c398	0.030366704
242	0x3c6fce64	0.01463661
243	0xbd218733	-0.039435577
244	0xbce2fde7	-0.02770896
245	0x3cabb29c	0.020959191
246	0xbc979b61	-0.018506708
247	0x3c030afb	0.007998223
248	0xbd208774	-0.03919168
249	0xbd098ad6	-0.03357967
250	0xbca118c4	-0.01966513
251	0x3d2705c8	0.040776998
252	0xbcb927cf	-0.02260199
253	0x3cf1d27b	0.02951931
254	0xbcb09b89	-0.02155854
255	0x3cb4dfdc	0.0220794

_backbone.linear_layers.6.weight f4 [16, 256]
0	0xbd94f0a6	-0.072724625
1	0x3dbb73e4	0.09152964
2	0x3e2b269d	0.16713949
3	0xbcd52c1a	-0.026022006
4	0x3d3de292	0.046358652
5	0x3d0fdf39	0.03512499
6	0xbdd841e1	-0.105594404
7	0xbcf965ed	-0.03044411
8	0xbdecdf50	-0.11566031
9	0x3d842efa	0.064542726
10	0xbc41bf79	-0.011825436
11	0xbd8d2752	-0.068922654
12	0x3e1344ba	0.14381686
13	0x3d1d528b	0.038408797
14	0x3e63f3da	0.2226099
15	0x3d43eac0	0.047831297
16	0xbc5583d5	-0.0130319195
17	0x3d4e5fa0	0.050384164
18	0xbda5c65e	-0.08094476
19	0xbbdcba5c	-0.006736083
20	0x3dd5e213	0.10443511
21	0xbdef098d	-0.116717435
22	0xbe005720	-0.12533236
23	0xbbb2b2be	-0.0054534366
24	0x3d99f5b0	0.07517564
25	0xbd1c281f	-0.0381242
26	0x3d98234e	0.07428609
27	0x3d4ccf1e	0.05000221
28	0xbdc8153d	-0.09769676
29	0xbd65d810	-0.056114256
30	0xbdeab453	-0.11460175
31	0x3db0f467	0.08640366
32	0x3daf6dd3	0.08565869
33	0x3d18892b	0.03724019
34	0x3d8e53d5	0.069495834
35	0x3c35fe5c	0.011108007
36	0xbe0ed65a	-0.13948956
37	0xbb80bf43	-0.00392905
38	0xbdc3497b	-0.095355
39	0xbda8dc3d	-0.08245132
40	0xbe06071a	-0.13088647
41	0xbd3872c3	-0.04503132
42	0x3d89e14b	0.06732424
43	0x3d736ede	0.059431903
44	0x3d034373	0.032046746
45	0x3e09c65c	0.13454574
46	0xbe1ad986	-0.15122041
47	0xbd90eb21	-0.07076097
48	0xbd101196	-0.03517302
49	0xbc3fa752	-0.011697607
50	0xbe27b392	-0.16377094
51	0x3c1959f9	0.00935983
52	0xbd7c6e44	-0.061628595
53	0xbe4e215d	-0.20129915
54	0x3c211538	0.009831719
55	0x3bfb7381	0.0076736812
56	0x3e5efa51	0.21775176
57	0xbd8e3e78	-0.06945509
58	0x3d05d19e	0.03267061
59	0x3d5223d4	0.0513037
60	0x3d190149	0.03735474
61	0xbd65502e	-0.05598467
62	0xbca1447a	-0.019685972
63	0x3d9fdd9a	0.07805939
64	0x3db68fb0	0.08914125
65	0x3b9dc213	0.004814395
66	0x3dae36a0	0.08506513
67	0x3d8ff5c1	0.07029296
68	0x3dc38d25	0.095484056
69	0xbe15af83	-0.14617734
70	0xbca13475	-0.019678334
71	0xbd955c86	-0.07293038
72	0xbdb48327	-0.08814078
73	0xbccf0822	-0.025272433
74	0xbde27d71	-0.11059082
75	0x3be37531	0.0069414605
76	0xbe0b5cf9	-0.13609685
77	0x3de091d2	0.10965313
78	0xbcd13a65	-0.02554054
79	0xbdb35e44	-0.08758214
80	0xbdd6ec83	-0.1049433
81	0x3c41ebab	0.011835973
82	0x3da61346	0.08109145
83	0xbdb2ce41	-0.08730746
84	0x3d93b846	0.07212882
85	0x3d91ed1a	0.07125302
86	0x3d9077de	0.07054113
87	0xbdd26bb7	-0.10274451
88	0x3d8ed5e5	0.06974391
89	0x3cb8922f	0.022530643
90	0xbdf5a03a	-0.119934514
91	0xbdf3a1b1	-0.118960746
92	0x3deae44d	0.11469326
93	0x3df004bd	0.11719654
94	0xbd9d116b	-0.07669338
95	0x3d4b38d7	0.049614754
96	0xbc9f5b0e	-0.019452598
97	0x3cb15b20	0.021649897
98	0xbdfc0d63	-0.12307241
99	0x3e0cbe3f	0.13744448
100	0xbdfab5f7	-0.12241738
101	0xbc3a2af2	-0.011362778
102	0x3dd716a6	0.10502367
103	0x3d80488f	0.062638395
104	0xbcb5839b	-0.022157481
105	0xbc567216	-0.013088724
106	0x3d89ba44	0.067249805
107	0x3d9ef819	0.077621646
108	0x3db610fa	0.08889957
109	0xbdaef44d	-0.085426904
110	0x3d628981	0.055306915
111	0x3db3521e	0.08755897
112	0xbd93caad	-0.07216392
113	0xbe22a049	-0.15881456
114	0xbcd428cd	-0.025898362
115	0x3d236e95	0.03990038
116	0x3c3de901	0.011591197
117	0xbd22da7d	-0.039759148
118	0x3ca0d8ee	0.01963469
119	0x3ad02721	0.0015880802
120	0x3d3bcfee	0.045852594
121	0xbc1e933f	-0.009678661
122	0xbcb08da2	-0.02155191
123	0x3d7b9b39	0.06142733
124	0xbdbba189	-0.0916167
125	0x3d629372	0.055316396
126	0x3c62ea93	0.013849872
127	0xbc5dac94	-0.013529915
128	0x3d498cf9	0.049206708
129	0xbe2d4d61	-0.16924049
130	0xbd29ab12	-0.04142291
131	0xbd6e0812	-0.058113165
132	0x3dd0a29a	0.10187264
133	0x3cd841e8	0.026398614
134	0xbcf09506	-0.029367935
135	0xbbfc9b0a	-0.007708912
136	0x3d5d0e83	0.053968918
137	0xbe04611e	-0.12927672
138	0xbdab9dd0	-0.0837971
139	0x3d1850d8	0.037186474
140	0x3d848332	0.06470336
141	0xbd3197e8	-0.04335776
142	0x3d2d3c7f	0.04229402
143	0xbd6391c2	-0.055558927
144	0xbd4355ab	-0.04768912
145	0xbd271185	-0.040788192
146	0xbdaf17ab	-0.08549436
147	0xbdcef5ed	-0.101055
148	0x3d14495a	0.036202766
149	0x3e094d80	0.1340847
150	0xbdcfaef4	-0.101407915
151	0xbd87e5d2	-0.066356316
152	0x3e219153	0.15778093
153	0xbd472b15	-0.04862507
154	0xbd62328b	-0.055223983
155	0x3dc88328	0.09790641
156	0xbdd829bd	-0.10554836
157	0x3e0941df	0.13404034
158	0xbce829b4	-0.028340198
159	0xbc809315	-0.015695134
160	0xbc2c258d	-0.010507
161	0xbdb17516	-0.086649105
162	0xbd3c862a	-0.046026386
163	0x3da33171	0.079684146
164	0xbdbffe35	-0.09374658
165	0xbe1a852d	-0.15089865
166	0xbdba28ed	-0.09089837
167	0x3d832076	0.06402676
168	0xbbcac257	-0.006187718
169	0x3d8e5e05	0.069515266
170	0xbd17949c	-0.03700696
171	0x3ddf3970	0.10899627
172	0x3a68598e	0.00088634423
173	0x3c3b32eb	0.011425714
174	0x3da9227b	0.0825853
175	0xbd6a62c5	-0.0572231
176	0x3dd4b3e1	0.10385872
177	0xbe421191	-0.18952014
178	0x3b7cf6de	0.0038599293
179	0xbacea415	-0.0015765453
180	0x3d8f7e1c	0.07006475
181	0xbd10be0e	-0.0353375
182	0xbd9a02bf	-0.07520055
183	0xbd3e96b3	-0.046530437
184	0x3cbb89f7	0.022892935
185	0x3dd6d9de	0.104907736
186	0xbc9b16a3	-0.018931692
187	0xbd74e0b3	-0.059784602
188	0xbd80be70	-0.06286323
189	0xbdae5c39	-0.08513684
190	0x3c98cf2d	0.018653477
191	0x3c0efb18	0.008726858
192	0xbd9c422c	-0.07629809
193	0x3c872934	0.01649914
194	0xbc992741	-0.018695476
195	0xbd7cd473	-0.061726045
196	0xbd7440a7	-0.05963197
197	0x3e2e5d18	0.170277
198	0xbd77b7d1	-0.060478035
199	0x3b8b4245	0.0042498433
200	0xbe04145b	-0.1289839
201	0x3d96c4ac	0.07361731
202	0x3e1f5e0d	0.15563221
203	0x3ca8b2a4	0.020592995
204	0xbb9800bd	-0.00463876
205	0x3d849dcd	0.064754106
206	0x3c65df0a	0.014030227
207	0x3d21acc1	0.03947139
208	0x3d896eca	0.067105845
209	0xbd811188	-0.06302172
210	0xbddee9d3	-0.10884442
211	0xbb8ccf6a	-0.0042971866
212	0xbd623a6a	-0.05523149
213	0xbc9a49cc	-0.018834017
214	0x3d1127c6	0.03543832
215	0xbce0044f	-0.027345804
216	0xbdadf2f4	-0.08493605
217	0x3e7b80ba	0.24560824
218	0x3da91ced	0.0825747
219	0x3ae915d6	0.0017782997
220	0xbcb1b1fb	-0.021691313
221	0xbe05232c	-0.13001698
222	0xbdda3d89	-0.10656268
223	0xbd1c1a22	-0.03811086
224	0xbe028c82	-0.12748912
225	0x3cc1acc8	0.023641959
226	0xbcae9584	-0.021311529
227	0xba1fd199	-0.0006096601
228	0xbdf7a3b1	-0.120917685
229	0x3e5c4ee1	0.21514465
230	0xbdd2a3b8	-0.10285133
231	0xbcb84de2	-0.022498075
232	0xbba8f6f7	-0.0051563936
233	0x3d45d3a9	0.048297558
234	0xbd29ca57	-0.041452732
235	0xbd02e85f	-0.031959888
236	0x3d92fbef	0.07176959
237	0x3be1ab0c	0.0068868455
238	0x3cf82e70	0.03029558
239	0xbd031a47	-0.032007482
240	0xbcef243a	-0.029192079
241	0xbd5f09b9	-0.05445263
242	0xbd381862	-0.04494513
243	0xbe04160e	-0.12899038
244	0xbd21d7ef	-0.03951257
245	0xbc64d2be	-0.0139662605
246	0xbd052b5a	-0.032512046
247	0x3d072678	0.03299567
248	0xbc1d28bb	-0.00959223
249	0x3d0645ac	0.032781288
250	0xbd3a6992	-0.045510836
251	0xbd54f6d2	-0.0519932
252	0x3b4a5629	0.003087411
253	0x3d80bf09	0.06286437
254	0xbcc6259e	-0.02418786
255	0xbdbc0137	-0.09179919

_backbone.linear_layers.6.bias f4 [16]
0	0x3c995f50	0.018722206
1	0x3d5a9b3c	0.0533707
2	0x3d117440	0.035511255
3	0x3d7d4a2e	0.06183832
4	0xbb43afa0	-0.002985932
5	0x3ca22790	0.019794255
6	0x3c1d2340	0.009590924
7	0xb9a85100	-0.00032103807
8	0x3ad95f00	0.0016584098
9	0x3c74d748	0.014943905
10	0xbd29cf80	-0.041457653
11	0xbd33fada	-0.043940403
12	0xbd6de4f2	-0.058079667
13	0x3c42d850	0.011892393
14	0x3d261408	0.040546447
15	0xbcb8bf84	-0.02255226

_embedding_layer.cat_embedding_layers.0.weight f4 [8, 4]
0	0xbf0a3b34	-0.53996587
1	0x3f5e16bc	0.8675344
2	0xbea2b52d	-0.3177885
3	0xbe7c6632	-0.2464836
4	0x3ecd6e32	0.40123135
5	0x3f912cb9	1.1341773
6	0x3ed6185e	0.41815466
7	0x3f45f026	0.7731956
8	0x3e8ed77d	0.2789878
9	0x3fb9eddf	1.4525717
10	0xbf77f8b7	-0.96863884
11	0xbec50a14	-0.38484251
12	0xbffa43a2	-1.955189
13	0xbf73459a	-0.9502808
14	0xbcc54ef9	-0.024085509
15	0xbe04ecff	-0.12981032
16	0xbf24ac5d	-0.64325505
17	0xbfda28c8	-1.7043695
18	0xbf09423e	-0.536167
19	0xbf47d2ee	-0.7805623
20	0x3f84bc82	1.0370028
21	0xbf967b0f	-1.1756305
22	0xbf2743e7	-0.65337986
23	0xbf3eac43	-0.744816
24	0x3fb7bd6f	1.4354686
25	0xbe965f65	-0.29369655
26	0xbf1a9bec	-0.6039417
27	0x400b36a5	2.1752102
28	0xc0454cb4	-3.0828066
29	0xbecfd3bf	-0.40591237
30	0xbd23b976	-0.03997179
31	0x3db6335d	0.088965155

_embedding_layer.cat_embedding_layers.1.weight f4 [10, 5]
0	0xbf724cb3	-0.94648284
1	0x3fa9ab51	1.3255407
2	0x3db3dd35	0.08782426
3	0x3ef6cf71	0.4820514
4	0x3e09f228	0.13471282
5	0x3f7eaf05	0.9948581
6	0xbfcfa39f	-1.6221808
7	0x3f44d36e	0.76885116
8	0x3f023c69	0.5087343
9	0x3ef554c8	0.47916245
10	0x3f83d348	1.0298853
11	0x3fb32b1a	1.3997529
12	0xbf16b724	-0.588732
13	0xbf3180c1	-0.6933709
14	0x3f24fcb9	0.64448124
15	0xbfb108aa	-1.3830769
16	0x3fc36ec0	1.5268173
17	0xbf347fdd	-0.70507604
18	0x3f573a01	0.8407288
19	0x3e25c559	0.16188563
20	0x3eb06cea	0.34458095
21	0xbfade6bf	-1.3586043
22	0x3fcae9d8	1.5852613
23	0x3faf7141	1.3706437
24	0xbf19f8d3	-0.601453
25	0x3ff29289	1.8950969
26	0x3f8ccb76	1.0999591
27	0xbf389270	-0.72098446
28	0xbeb796c7	-0.3585722
29	0xbecea0ca	-0.40357047
30	0xbf4a4971	-0.7901831
31	0xbfd4159e	-1.6569097
32	0xbf3cf53d	-0.73811704
33	0xbf621d71	-0.88326174
34	0x3efab474	0.489658
35	0xbf9ea780	-1.2394867
36	0xbe0ecac0	-0.1394453
37	0x3f6a2d36	0.91475236
38	0xbc35632e	-0.01107101
39	0x3d3ea90c	0.046547934
40	0x3f469ba9	0.7758127
41	0xbecb4aae	-0.39705414
42	0xbfccfc53	-1.6014503
43	0x3e8e661f	0.27812287
44	0x3f161c91	0.5863734
45	0x3eb1c6dc	0.3472203
46	0xbfbaf3e1	-1.4605676
47	0xbe601f4e	-0.21886942
48	0x3f9752bb	1.1822122
49	0x3e3c6275	0.18396933

_embedding_layer.cat_embedding_layers.2.weight f4 [8, 4]
0	0x3f8fcff3	1.1235336
1	0x3e1624de	0.14662501
2	0xc0004b5c	-2.0045996
3	0x3f222d54	0.63350415
4	0x3f3d40df	0.7392711
5	0xbf2a5086	-0.6652912
6	0xbf868615	-1.0509669
7	0x3f3162ce	0.6929139
8	0x3e50c593	0.20387869
9	0xbebc29a7	-0.36750528
10	0x3ed5b39f	0.41738603
11	0x3f02203d	0.5083044
12	0x4021ea6b	2.5299327
13	0xbe9f8130	-0.3115325
14	0x3e8829ac	0.26594293
15	0x3f4558c2	0.7708856
16	0x3eee24d4	0.46512473
17	0xbfa309fd	-1.2737423
18	0xbf862ca5	-1.0482374
19	0xbf696dee	-0.91183364
20	0xc0027d24	-2.038888
21	0xbea95380	-0.33071518
22	0x3f2d2695	0.67636997
23	0xbed37f97	-0.4130828
24	0xbeca3d14	-0.39499724
25	0xbfd0e54c	-1.6319976
26	0xbfb99ecc	-1.4501586
27	0xbf742a11	-0.9537669
28	0xbe43cb0d	-0.19120426
29	0xbfa3a2cf	-1.278406
30	0xbfedcd6f	-1.8578318
31	0x3e32f179	0.17474927

_embedding_layer.cat_embedding_layers.3.weight f4 [5, 3]
0	0xbeb4b23e	-0.35292238
1	0xbe1b3daf	-0.15160249
2	0x3fa799cf	1.3093814
3	0x402abb86	2.6676955
4	0xbef88901	-0.48542026
5	0x3f0c0980	0.54701996
6	0x3dbebfca	0.093139246
7	0xbfb74cff	-1.4320372
8	0x3e68d1e5	0.22736318
9	0x3f57f220	0.8435383
10	0x3e33eeea	0.17571607
11	0xbf1c34f5	-0.61018306
12	0xbf2a8ced	-0.66621286
13	0x3fe2d773	1.7722
14	0xbd39e206	-0.04538157

_embedding_layer.cat_embedding_layers.4.weight f4 [12, 6]
0	0xbd948ca8	-0.072533906
1	0x3fb4f978	1.4138632
2	0xbf26fcea	-0.65229666
3	0xbea65dc2	-0.32493407
4	0xbe8f901b	-0.2803963
5	0x3eaf0b2d	0.34188214
6	0xbf1a05d8	-0.60165167
7	0x4000de94	2.013585
8	0xbf0f24a8	-0.5591531
9	0xbd2477e2	-0.04015339
10	0x3f34f8db	0.70692223
11	0x3f4fa4b8	0.81110716
12	0xc0157018	-2.3349667
13	0x3f396d33	0.7243225
14	0xbe755e3e	-0.23961732
15	0xbdf6126c	-0.120152324
16	0x3fa6decc	1.3036742
17	0x3eb7b7a9	0.3588231
18	0x3f312449	0.6919599
19	0xbf45917a	-0.77175105
20	0x3e7f73ee	0.24946567
21	0xbf882878	-1.063735
22	0xbf899713	-1.0749229
23	0xbf279573	-0.65462416
24	0x3f130070	0.5742254
25	0xbf938a40	-1.1526566
26	0xbf47077d	-0.777458
27	0x3fbb9f44	1.4657979
28	0xbe3113db	-0.1729273
29	0x3da3bfb7	0.07995551
30	0xbef42343	-0.47683153
31	0x3e361375	0.1778086
32	0x3f654c64	0.8956969
33	0x3f97fefb	1.1874689
34	0xbf0801a0	-0.5312748
35	0xbf8a9731	-1.082739
36	0x3fa8a1e5	1.3174406
37	0xbfbbfd33	-1.4686645
38	0x3ea3e966	0.32014006
39	0xbf88ca09	-1.0686656
40	0xbf32e079	-0.6987377
41	0xbee9f0cc	-0.45691526
42	0xbdd1c384	-0.1024237
43	0x3da6dcac	0.081475586
44	0xbe8cc95b	-0.27497372
45	0xbde3d50e	-0.11124621
46	0xbe373980	-0.17893028
47	0x3f6577a3	0.89635676
48	0xbf698d7e	-0.91231525
49	0x3f6cdb01	0.92521673
50	0x3fae517f	1.3618621
51	0xbefce906	-0.49396533
52	0x3ea2c94b	0.317942
53	0xbf9b91ad	-1.2153832
54	0xbec9ac61	-0.39389327
55	0x3dfc6f94	0.12325969
56	0xbf3afcb1	-0.73041826
57	0x3e6c3f7b	0.23071091
58	0xbf3c8399	-0.736383
59	0xbec71155	-0.3888041
60	0xbcdce5b1	-0.026964994
61	0x3e90a7fd	0.28253165
62	0xbf7743ba	-0.9658772
63	0x3fa9d2f6	1.3267505
64	0x3fa86a78	1.3157492
65	0xbff9aaca	-1.9505246
66	0xbfaedbf4	-1.3660874
67	0xbfac26f0	-1.3449383
68	0x3f98a7b8	1.1926184
69	0x3faa2ce2	1.3294947
70	0xbf9df901	-1.2341615
71	0xbed50900	-0.4160843

_embedding_layer.cat_embedding_layers.5.weight f4 [12, 6]
0	0x3ed145d0	0.40873575
1	0x3f809052	1.0044043
2	0x4005a387	2.088106
3	0x3dfa25d3	0.12214246
4	0xbf8904eb	-1.0704626
5	0x3fd37fb0	1.6523342
6	0xbc9bd220	-0.019021094
7	0x3fbeb083	1.4897617
8	0xbf4cc60d	-0.799897
9	0x3ebd144e	0.36929554
10	0xbfa3b7cd	-1.2790467
11	0xbf1ef2ca	-0.62089217
12	0x3eff51c4	0.4986707
13	0xbf411e33	-0.75436705
14	0x3f0d3c7c	0.55170417
15	0xbe7b67d6	-0.24551329
16	0xbf8c8ac8	-1.0979853
17	0xbe8ab100	-0.27088165
18	0xbf1a2526	-0.60212934
19	0xbff2889f	-1.8947943
20	0x4001c157	2.0274255
21	0x3fcf1d54	1.6180825
22	0x3f8406c2	1.0314562
23	0x3fcb3817	1.5876492
24	0x4002466f	2.035549
25	0xbf9a3908	-1.2048655
26	0x3f9db5ee	1.2321146
27	0x3f20cb29	0.6281
28	0xbf629be3	-0.88519114
29	0x3d96b9bd	0.073596455
30	0xbf4ba795	-0.79552585
31	0xbf132a54	-0.5748646
32	0x3f3d5df9	0.73971516
33	0x3faf3c7c	1.3690333
34	0xbe7e69fc	-0.24845117
35	0x3f70f6eb	0.94126767
36	0xc005f1b6	-2.0928779
37	0xbfb70320	-1.4297829
38	0xbe1d3d0f	-0.15355323
39	0x3f9d5602	1.2291873
40	0xbedb53d3	-0.4283739
41	0x3f0d3c50	0.55170155
42	0x4019e3cb	2.4045284
43	0xbecca07e	-0.39966196
44	0xbe35eea5	-0.17766817
45	0xbec91f2c	-0.39281595
46	0xbfd9369e	-1.6969793
47	0x3cee3dff	0.029082296
48	0xbf4e73d3	-0.80645484
49	0x3f2e4329	0.6807123
50	0xbfc3c914	-1.5295739
51	0x3f6419fa	0.8910214
52	0x401530ae	2.3310962
53	0xc02cf0ff	-2.7022092
54	0xbe160ecc	-0.14654082
55	0xbef19ec7	-0.4719145
56	0xbe8e44c3	-0.27786836
57	0x3e0c0f1e	0.13677642
58	0xbeff645d	-0.4988126
59	0xbf346b31	-0.7047606
60	0x3f848be2	1.0355189
61	0xbf9d5e9b	-1.2294496
62	0xbf1b20f4	-0.6059716
63	0xbe74ef6f	-0.23919462
64	0xbefe0ce5	-0.49619213
65	0x3f174993	0.5909664
66	0x3f8d0a41	1.1018754
67	0xbf01bd32	-0.50679314
68	0x3f96e393	1.17882
69	0xbd730fc8	-0.059341222
70	0xbf724558	-0.9463706
71	0xbf2d62c1	-0.6772881

_embedding_layer.cat_embedding_layers.6.weight f4 [4, 2]
0	0x3e9bf3e6	0.30459517
1	0x3f0394c1	0.51398855
2	0x3f417036	0.75561845
3	0xbef508ba	-0.4785822
4	0xbf228d89	-0.63497216
5	0x3f148a52	0.5802356
6	0xbf798210	-0.97464085
7	0x3fa348d6	1.2756603

_embedding_layer.cat_embedding_layers.7.weight f4 [6, 3]
0	0xbb6f745e	-0.0036537866
1	0x3f5330e2	0.82496464
2	0x3f96fc68	1.1795778
3	0xbfbcaee1	-1.4740869
4	0x3e69b0a0	0.22821283
5	0x3efe33de	0.49648947
6	0x3d87f17c	0.06637856
7	0x3f5deb82	0.8668748
8	0xbee10a8b	-0.43953356
9	0xbf1789c7	-0.59194607
10	0xbf5aef00	-0.85520935
11	0xbf0e7853	-0.5565235
12	0x3ef5799e	0.4794435
13	0xbf747725	-0.954943
14	0x3f8e659f	1.1124762
15	0xbe2aa31b	-0.16663782
16	0xbf962912	-1.1731284
17	0x3ece3db9	0.40281466

_embedding_layer.cat_embedding_layers.8.weight f4 [7, 4]
0	0xc00d7662	-2.2103505
1	0x3c9ea3a5	0.019365141
2	0x3cf2f7b7	0.029659135
3	0xbf10bcfa	-0.56538355
4	0x3f9f594f	1.244913
5	0x3fcca57d	1.5988003
6	0xbe2361b9	-0.15955247
7	0x3e47e312	0.19520214
8	0xbdcc185b	-0.09965583
9	0xbf5f8587	-0.8731312
10	0xbe7874ec	-0.24263352
11	0x3ece6576	0.40311784
12	0x3f9a918b	1.2075666
13	0xbe61fd9f	-0.22069405
14	0x3fa66852	1.3000586
15	0x3f350408	0.70709276
16	0xbefeffdb	-0.49804577
17	0x400af6b1	2.1713068
18	0xbe5226fb	-0.20522682
19	0x3f1bc15b	0.6084191
20	0x3f7699e6	0.9632858
21	0x3f83abda	1.028682
22	0x3ffa75ae	1.9567163
23	0xbe5d9d1d	-0.21641965
24	0xbf6233d0	-0.8836031
25	0x3e9988ce	0.29987186
26	0xbf9256a5	-1.1432692
27	0xbef0daaf	-0.47041842

_embedding_layer.cat_embedding_layers.9.weight f4 [9, 5]
0	0xbe9ecf38	-0.3101747
1	0x3f213256	0.6296743
2	0xbf28f1a3	-0.6599371
3	0x3f5e3727	0.86802906
4	0x3e95b936	0.29242867
5	0xbee17622	-0.4403544
6	0x402d2a1e	2.7056956
7	0x3fe825d6	1.8136547
8	0xbc2d517e	-0.010578511
9	0x3e0ec8a6	0.13943729
10	0xbe427b73	-0.18992405
11	0xbf947138	-1.1597052
12	0xbe25a8b6	-0.1617764
13	0xbe3adb08	-0.18247616
14	0xbecc4f58	-0.39904284
15	0xc0003c0b	-2.0036647
16	0xbe4a6025	-0.19763239
17	0x3f25cdae	0.6476697
18	0xbf7092f9	-0.9397426
19	0x3f93e540	1.1554337
20	0xbee95342	-0.45571333
21	0xbd797ad2	-0.060908146
22	0xbe88b68a	-0.26701766
23	0xbe88f336	-0.26748055
24	0x3fb2cc97	1.3968686
25	0xbf2f9c86	-0.6859821
26	0x3cf4f829	0.029903488
27	0x3f2f83b7	0.68560356
28	0x3f58f3c2	0.84746945
29	0xbeb59e2d	-0.3547224
30	0x3ef61cb7	0.48068783
31	0x3ffde0a0	1.9834175
32	0xbf639980	-0.889061
33	0xbf35fed5	-0.7109197
34	0x3fc88d8a	1.5668194
35	0xbec12bb6	-0.3772866
36	0xbfc440d3	-1.5332283
37	0xbda39c54	-0.079888016
38	0x3f6320dd	0.8872202
39	0xbe7c96de	-0.24666926
40	0x3eaad212	0.33363396
41	0x3e261c4c	0.16221732
42	0x3f9129fe	1.134094
43	0x3f19d312	0.6008769
44	0x3ed8735c	0.42275512

_embedding_layer.cat_embedding_layers.10.weight f4 [9, 5]
0	0x40177617	2.3665826
1	0x3f06933f	0.5256843
2	0xbe6109e4	-0.21976429
3	0x3ef161a4	0.47144806
4	0xbe003cd2	-0.12523201
5	0x3dfb393f	0.12266778
6	0x3f4c5488	0.79816484
7	0xbe08a15b	-0.13342802
8	0xbe84d894	-0.25946486
9	0xbf0d83b7	-0.55279106
10	0x3f3a8112	0.72853196
11	0xbd8e3734	-0.06944123
12	0x3f5d150c	0.8636024
13	0x3ed6c2f7	0.4194562
14	0xbdca017e	-0.09863566
15	0xbf95fc67	-1.1717652
16	0xbf1383b3	-0.5762283
17	0xbe8ae02f	-0.27124164
18	0x3f0d565a	0.5520989
19	0xbe463317	-0.19355427
20	0xbe87c2d5	-0.26515833
21	0x3fa028c9	1.2512447
22	0xbf8ffdb7	-1.1249303
23	0x3f254c01	0.645691
24	0xbda793d3	-0.08182492
25	0x3ece8653	0.40336856
26	0x3f87d662	1.06123
27	0x40330a75	2.7975132
28	0xbf448efc	-0.76780677
29	0xbfdb7d27	-1.7147568
30	0x3ea42eb5	0.32066885
31	0x3f97361b	1.1813387
32	0x3f755ca7	0.958445
33	0xbf802fcd	-1.0014588
34	0x4000dc44	2.013444
35	0x40157283	2.3351142
36	0xbf2b94fe	-0.6702422
37	0xbf963aed	-1.1736733
38	0x401088da	2.2583528
39	0xc02e1de3	-2.7205741
40	0xbd30e4db	-0.043187004
41	0x3f89acd5	1.0755869
42	0xbf016a0a	-0.5055243
43	0x3d96b695	0.073590435
44	0x3f6a362b	0.91488904

_embedding_layer.normalizing_batch_norm.bn.weight f4 [21]
0	0x3f800000	1.0
1	0x3f800000	1.0
2	0x3f800000	1.0
3	0x3f800000	1.0
4	0x3f800000	1.0
5	0x3f800000	1.0
6	0x3f800000	1.0
7	0x3f800000	1.0
8	0x3f800000	1.0
9	0x3f800000	1.0
10	0x3f800000	1.0
11	0x3f800000	1.0
12	0x3f800000	1.0
13	0x3f800000	1.0
14	0x3f800000	1.0
15	0x3f800000	1.0
16	0x3f800000	1.0
17	0x3f800000	1.0
18	0x3f800000	1.0
19	0x3f800000	1.0
20	0x3f800000	1.0

_embedding_layer.normalizing_batch_norm.bn.bias f4 [21]
0	0x00000000	0.0
1	0x00000000	0.0
2	0x00000000	0.0
3	0x00000000	0.0
4	0x00000000	0.0
5	0x00000000	0.0
6	0x00000000	0.0
7	0x00000000	0.0
8	0x00000000	0.0
9	0x00000000	0.0
10	0x00000000	0.0
11	0x00000000	0.0
12	0x00000000	0.0
13	0x00000000	0.0
14	0x00000000	0.0
15	0x00000000	0.0
16	0x00000000	0.0
17	0x00000000	0.0
18	0x00000000	0.0
19	0x00000000	0.0
20	0x00000000	0.0

_embedding_layer.normalizing_batch_norm.bn.running_mean f4 [21]
0	0x00000000	0.0
1	0x00000000	0.0
2	0x00000000	0.0
3	0x00000000	0.0
4	0x00000000	0.0
5	0x00000000	0.0
6	0x00000000	0.0
7	0x00000000	0.0
8	0x00000000	0.0
9	0x00000000	0.0
10	0x00000000	0.0
11	0x00000000	0.0
12	0x00000000	0.0
13	0x00000000	0.0
14	0x00000000	0.0
15	0x00000000	0.0
16	0x00000000	0.0
17	0x00000000	0.0
18	0x00000000	0.0
19	0x00000000	0.0
20	0x00000000	0.0

_embedding_layer.normalizing_batch_norm.bn.running_var f4 [21]
0	0x3f800000	1.0
1	0x3f800000	1.0
2	0x3f800000	1.0
3	0x3f800000	1.0
4	0x3f800000	1.0
5	0x3f800000	1.0
6	0x3f800000	1.0
7	0x3f800000	1.0
8	0x3f800000	1.0
9	0x3f800000	1.0
10	0x3f800000	1.0
11	0x3f800000	1.0
12	0x3f800000	1.0
13	0x3f800000	1.0
14	0x3f800000	1.0
15	0x3f800000	1.0
16	0x3f800000	1.0
17	0x3f800000	1.0
18	0x3f800000	1.0
19	0x3f800000	1.0
20	0x3f800000	1.0

head.layers.0.weight f4 [1, 16]
0	0x3da05aab	0.078297935
1	0x3f0f1e52	0.5590564
2	0x3f271140	0.65260696
3	0xbf364b68	-0.7120881
4	0x3dbd32b7	0.09238189
5	0xbee0e5e7	-0.43925402
6	0xbf20333b	-0.6257817
7	0x3f52f4b4	0.8240464
8	0x3daf527c	0.085606545
9	0x3dd1ea9b	0.102498256
10	0xbe47d81a	-0.1951603
11	0x3c6a484d	0.014299464
12	0xbc8b29fd	-0.016987795
13	0x3c8fe597	0.017565532
14	0xbe561356	-0.20905814
15	0x3eac4eb7	0.33653805
