Eunho/pytorch_stacking/.lr_find_5a065e97-6a28-4cf6-b5f5-36d96cfce47e.ckpt (torch, 725128 bytes, 22 tensors)

_backbone.linear_layers.0.weight f4 [512, 68]
-0.021341296 0.051997826 -0.17656738 0.22827849 -0.0027089117 0.2355586 -0.04096184 -0.20107803
-0.17212485 0.100418575 -0.097234644 0.02798077 0.15626469 -0.07411491 -0.024189664 -0.25061968
-0.18915056 0.096544884 -0.03151495 0.12184907 0.11102262 -0.088385336 -0.22715192 -0.082439944
0.22481045 -0.22759898 -0.08594633 0.095026985 -0.18033418 -0.20084588 -0.117281206 0.40424398
-0.15159604 -0.25095162 -0.04948208 -0.2437602 0.20398985 0.006603681 0.08379172 -0.17352967
-0.056436505 -0.06972933 -0.094995864 0.03866328 0.07064505 -0.03607129 -0.051307525 -0.10725268
0.16291979 -0.111131676 -0.28542575 -0.16829015 0.3913856 -0.04852362 -0.25915122 -0.15464245
-0.01930644 -0.04237781 0.012776871 0.14136946 0.16393794 -0.22981206 -0.03384535 0.16450502
0.17100456 -0.077687025 -0.001428065 0.2155265 -0.14725837 0.30478796 0.027181081 0.10636401
-0.19765085 -0.032868035 0.10315772 0.30383772 0.020559326 -0.12271416 -0.1661064 0.04927326
0.052209254 -0.1303928 0.2041717 0.08288804 0.22272882 -0.05130876 0.104712814 -3.181996e-05
0.026161572 0.17766783 0.095794275 0.029463235 0.05225417 -0.067784935 0.114696234 -0.37920895
0.3057834 0.30823433 -0.11014691 -0.05967465 0.014097929 0.063375115 -0.073005155 0.119497396
-0.1301132 0.1672525 -0.2517266 0.109331734 0.23925461 0.11402388 0.076916136 0.10194518
0.19785953 -0.16433576 0.06673918 0.058705892 -0.06689042 -0.08720656 -0.001861494 0.2132674
-0.08618728 -0.012126557 0.15919149 -0.22147717 -0.07659628 -0.07045301 -0.081880584 -0.028480774
-0.32763943 0.2959403 -0.0008301424 -0.03552698 -0.07520448 -0.25367337 -0.29279736 -0.12575822
-0.070202135 0.18211615 0.15342753 -0.3362832 0.14840683 0.25847912 0.02793416 0.07260935
-0.013644134 -0.07759068 0.07134362 -0.31560344 0.11124422 -0.0710104 0.15582748 -0.0033059763
-0.16242759 -0.10260313 0.13798782 0.21578641 0.17137127 0.003829841 0.17686503 0.18677896
-0.043164868 0.04161723 -0.192584 -0.472585 -0.037110556 -0.15744624 -0.14443022 0.10161089
0.082938045 -0.093582846 -0.0886059 0.11231377 0.07059685 -0.4685633 -0.18397476 0.1020815
-0.0042893095 0.044974286 -0.040608265 0.057691995 -0.03485174 0.057643957 0.104491636 -0.26195994
-0.02153504 -0.05919791 -0.059694238 -0.22659993 0.29557964 -0.17487565 -0.15859503 0.2508107
-0.062027223 -0.005447216 -0.045735084 -0.13804121 -0.016960302 0.023377648 -0.02366307 -0.11305265
-0.21813868 -0.060555857 0.08447512 -0.046793636 -0.0047503053 0.058713973 -0.4444567 -0.22810958
0.025734073 -0.17805675 -0.04424339 -0.06762079 0.16948316 -0.033609435 0.1576977 0.004502088
-0.05794789 -0.1431114 -0.052550513 0.022585342 0.14199069 -0.15973632 0.0043390887 0.24971068
0.10847044 -0.028595362 -0.12294627 0.01691941 0.08975356 0.16497561 0.2794894 0.105062395
-0.045464296 -0.19554952 -0.062549874 -0.00052266644 -0.2477871 -0.06339701 -0.09217085 0.13983864
-0.0040238285 -0.073008165 -0.20691341 0.0039370987 0.070734836 -0.24038264 0.09687222 0.20344007
-0.2035336 0.14692241 0.16188979 -0.124734804 0.066482484 0.060586132 0.058233235 -0.08560422
00000000: f1d3 aebc acfb 543d 14ce 34be d6c1 693e
00000010: ff87 31bb 4636 713e 9ac7 27bd 66e7 4dbe
00000020: 7f41 30be 41a8 cd3d f522 c7bd ee37 e53c
00000030: da03 203e 8fc9 97bd 6729 c6bc 3951 80be
00000040: afb0 41be 53b9 c53d d215 01bd 018c f93d
00000050: d45f e33d 5f03 b5bd 839a 68be 46d6 a8bd
00000060: b634 663e b50f 69be a104 b0bd 829d c23d
00000070: 86a9 38be 8baa 4dbe 2131 f0bd 11f9 ce3e
00000080: fe3b 1bbe bb7c 80be b9ad 4abd 469c 79be
00000090: b7e2 503e b163 d83b fe9a ab3d c3b1 31be
000000a0: f729 67bd 40ce 8ebd 318d c2bd 635d 1e3d
000000b0: 5aae 903d 7dbf 13bd d727 52bd 4ba7 dbbd
000000c0: 72d4 263e 0199 e3bd 5323 92be 4154 2cbe
000000d0: b263 c83e b4c0 46bd 78af 84be 975a 1ebe
000000e0: 8a28 9ebc 5b94 2dbd 1556 513c 28c3 103e
000000f0: 59df 273e da53 6bbe 6ca1 0abd 0174 283e
00000100: d21b 2f3e 601a 9fbd e92d bbba fbb2 5c3e
00000110: e6ca 16be 2b0d 9c3e dcaa de3c 60d5 d93d
00000120: fc64 4abe a2a0 06bd 5b44 d33d 9e90 9b3e
00000130: 086c a83c 9051 fbbd cc17 2abe c2d2 493d
00000140: 5fd9 553d b185 05be 6312 513e 34c1 a93d
00000150: 0613 643e 2229 52bd ac73 d63d 6c76 05b8
00000160: cb50 d63c 8eee 353e ca2f c43d e25c f13c
00000170: 7808 563d d4d2 8abd dce5 ea3d ad27 c2be
00000180: a48f 9c3e e4d0 9d3e b494 e1bd 686d 74bd
00000190: 00fb 663c d0ca 813d ba83 95bd 0dbb f43d
000001a0: 653c 05be 3d44 2b3e 4fe2 80be 51e9 df3d
000001b0: 29ff 743e 5a85 e93d 3586 9d3d a2c8 d03d
000001c0: b09b 4a3e a247 28be 8dae 883d 9775 703d
000001d0: d8fd 88bd 5a99 b2bd 60fd f3ba c562 5a3e
000001e0: f582 b0bd 77ae 46bc 1803 233e e9ca 62be
000001f0: 83de 9cbd ab49 90bd 02b1 a7bd 8350 e9bc
00000200: 5bc0 a7be 7d85 973e ea9d 59ba bd84 11bd
00000210: ce04 9abd 7ae1 81be 89e9 95be c3c6 00be
00000220: 23c6 8fbd a87c 3a3e 1b1c 1d3e 502d acbe
00000230: f6f7 173e 6057 843e 2ed6 e43c 36b4 943d
00000240: a58b 5fbc dde7 9ebd 9b1c 923d c696 a1be
00000250: 02d4 e33d e76d 91bd 3d91 1f3e 14a9 58bb
00000260: 6b53 26be 9721 d2bd ae4c 0d3e 1df7 5c3e
00000270: f37b 2f3e 12fe 7a3b 1b1c 353e fc42 3f3e
00000280: a5cd 30bd d476 2a3d bd34 45be a9f6 f1be
00000290: 3d01 18bd 9639 21be 84e5 13be 5f19 d03d
000002a0: 6cdb a93d 5da8 bfbd 0377 b5bd c304 e63d
000002b0: 1595 903d 87e7 efbe e163 3cbe 1b10 d13d
000002c0: 568d 8cbb f536 383d da54 26bd 714e 6c3d
000002d0: b3c0 0ebd 121c 6c3d b6ff d53d 9d1f 86be
000002e0: 416a b0bc 8279 72bd f281 74bd d009 68be
000002f0: 3756 973e 9a12 33be bc66 22be 436a 803e
00000300: 4210 7ebd 8f7e b2bb b654 3bbd ad5a 0dbe
00000310: 55f0 8abc 7b82 bf3c 0ed9 c1bc 2688 e7bd
00000320: bf5f 5fbe 6b09 78bd 4b01 ad3d afaa 3fbd
00000330: 73a8 9bbb 107e 703d d48f e3be 8f95 69be
00000340: 43d0 d23c 8254 36be 8f38 35bd c57c 8abd
00000350: fe8c 2d3e 0caa 09bd 827b 213e 4086 933b
00000360: c45a 6dbd cb8b 12be 353f 57bd e504 b93c
00000370: 0266 113e eb91 23be ea2e 8e3b 28b4 7f3e
00000380: c025 de3d d240 eabc 41cb fbbd 939a 8a3c
00000390: b7d0 b73d 5eef 283e 3c19 8f3e f42a d73d
000003a0: c538 3abd 223e 48be 261a 80bd 8d03 09ba
000003b0: e7bb 7dbe 4bd6 81bd 12c4 bcbd dc31 0f3e
000003c0: 52da 83bb 4e85 95bd 1ce1 53be c702 813b
000003d0: 6ddd 903d de26 76be f164 c63d 9852 503e
000003e0: 1d6b 50be d472 163e 70c6 253e f674 ffbd
000003f0: f827 883d 2a29 783d f985 6e3d 4451 afbd

_backbone.linear_layers.0.bias f4 [512]
0.10054097 -0.00914313 0.04787605 -0.044060424 0.012397752 -0.09317513 -0.08167793 -0.093887225
0.10572942 0.012434745 0.11963143 -0.06531238 -0.013209152 -0.050215244 -0.10736716 -0.08700491
-0.058418863 0.07989728 0.06290741 -0.00083919975 0.041273084 -0.046612732 -0.10035179 -0.107752666
-0.036225583 -0.02972825 0.10388358 -0.09101788 0.0843338 0.11458842 -0.07756936 0.019863117
0.07646691 0.109208405 -0.11752801 -0.102765806 -0.005788644 0.116902195 0.04293717 -0.0952302
-0.0028438768 -0.058054592 0.010305051 0.02850862 -0.09688038 0.04732752 0.11805604 -0.07427407
-0.101406395 0.081126 0.08736399 -0.0015220696 -0.027053049 -0.08953773 0.10511991 -0.001098299
0.0777457 -0.117930256 -0.0464163 -0.043933596 0.06432703 -0.11392714 0.09323265 -0.091375396
-0.051228337 -0.046764247 0.07810628 -0.058100563 0.11926217 -0.009125782 -0.068170816 -0.08671814
-0.064330615 -0.007377299 0.030943384 0.061503522 0.0906433 -0.049363423 0.08304472 0.018303376
-0.054249708 -0.0912284 0.10248796 0.01141944 0.108760685 -0.09869473 -0.09309605 -0.07130051
-0.033267125 -0.010500398 -0.05217771 0.011410202 -0.102888204 0.10270531 -0.064314306 -0.037146345
-0.06725343 -0.10577133 -0.086874805 0.11874344 -0.12061991 0.01988499 -0.068626545 -0.040564917
0.058253407 -0.07847295 0.08042505 0.06656455 0.0665511 -0.03998976 -0.015457215 -0.062374655
-0.013938556 -0.059546158 -0.0025726343 -0.026149245 0.09846819 0.10322926 0.07296727 0.09072346
-0.038620435 -0.025612123 -0.111390054 0.088335305 0.0028347115 -0.090995684 0.03907702 -0.04952662
-0.04114231 0.020574365 0.112147726 0.084459916 0.11614644 0.11876798 0.0652678 -0.038481135
0.11088263 -0.0075653456 0.037989765 0.07055685 -0.11944219 0.049824316 0.10980776 0.02813228
0.06533119 -0.044178486 -0.047947954 0.0072718696 0.108695626 0.0017295312 0.011496592 -0.014194071
-0.1084548 0.01845002 0.059128184 -0.10424156 -0.058133524 -0.10008163 -0.11561568 -0.023575397
0.03543338 -0.010687318 0.033113427 0.014648879 -0.020410605 0.07542644 0.06277243 -0.0026542253
-0.010810499 -0.051485136 -0.091818884 0.015977206 0.043548383 0.07493316 0.012175038 0.093838856
0.1014572 -0.044904944 -0.023564829 0.092455015 0.115183204 -0.045421954 0.053376492 -0.11134397
0.008137857 0.119235404 -0.115302354 0.056780085 0.105332516 0.10001484 -0.062568024 0.068789065
-0.025772948 0.032765884 -0.11138107 -0.05880821 0.021566411 0.06524353 0.04405782 -0.0048009926
0.014677141 0.0007060577 0.046716742 0.051576734 -0.09189257 -0.11471051 -0.07016754 0.03465828
0.02878472 0.06822533 0.02399094 0.011239908 -0.0433644 0.056383796 -0.09010728 0.057155646
0.03326146 -0.054981235 0.038646325 0.044295814 -0.024542347 -0.09956172 0.08288199 0.04744722
-0.12013858 -0.103913456 0.09091486 0.08215264 -0.07121089 0.1028755 0.11845491 -0.026231617
0.06604848 0.05983122 0.08903796 -0.05432514 0.10000779 -0.06811234 -0.093872234 -0.06722139
-0.11797082 0.02679142 -0.06625315 -0.03709534 -0.053576235 -0.010169957 -0.11410834 -0.09572586
-0.006097935 -0.014806828 -0.082408905 -0.023052298 -0.005627572 0.09790651 0.018535124 0.048420355
00000000: 6de8 cd3d 11cd 15bc ad19 443d b478 34bd
00000010: f11f 4b3c 9ad2 bebd c246 a7bd f247 c0bd
00000020: ab88 d83d 1abb 4b3c 5301 f53d 7fc2 85bd
00000030: 336b 58bc 80ae 4dbd 50e3 dbbd a12f b2bd
00000040: 9e48 6fbd 2fa1 a33d 9ad5 803d befd 5bba
00000050: f70d 293d feec 3ebd 3d85 cdbd 6ead dcbd
00000060: 4761 14bd a988 f3bc eac0 d43d 9567 babd
00000070: 33b7 ac3d 55ad ea3d afdc 9ebd fab7 a23c
00000080: af9a 9c3d a8a8 df3d 86b2 f0bd e176 d2bd
00000090: aaae bdbb 6b6a ef3d e3de 2f3d 0d08 c3bd
000000a0: 5660 3abb a7ca 6dbd 84d6 283c e98a e93c
000000b0: 3869 c6bd 80da 413d 5dc7 f13d 011d 98bd
000000c0: 28ae cfbd 6325 a63d e4eb b23d 2e80 c7ba
000000d0: 5b9e ddbc 8f5f b7bd 1b49 d73d cdf4 8fba
000000e0: 2339 9f3d 6b85 f1bd 051f 3ebd b7f3 33bd
000000f0: e4bd 833d a252 e9bd c2f0 be3d 0623 bbbd
00000100: ced4 51bd de8b 3fbd 2ff6 9f3d dbfa 6dbd
00000110: b93f f43d 4e84 15bc 249d 8bbd 4899 b1bd
00000120: c5bf 83bd 45bd f1bb fb7c fd3c 1eeb 7b3d
00000130: 32a3 b93d 4d31 4abd 5a13 aa3d f6f0 953c
00000140: f134 5ebd f5d5 babd 35e5 d13d 9a18 3b3c
00000150: ecbd de3d 7620 cabd 24a9 bebd 0006 92bd
00000160: 1c43 08bd dd09 2cbc 4bb8 55bd dbf1 3a3c
00000170: 0db7 d2bd 2957 d23d 38b7 83bd c426 18bd
00000180: 2bbc 89bd a49e d8bd 6beb b1bd c32f f33d
00000190: 9207 f7bd d9e5 a23c 138c 8cbd 6627 26bd
000001a0: 209b 6e3d 6db6 a0bd e3b5 a43d ff52 883d
000001b0: f14b 883d 4dcc 23bd 4240 7dbc 917c 7fbd
000001c0: 8b5e 64bc ace6 73bd a499 28bb f136 d6bc
000001d0: b1a9 c93d dd69 d33d dd6f 953d 39cd b93d
000001e0: 7630 1ebd 84d0 d1bc 7820 e4bd 24e9 b43d
000001f0: 91c6 393b f25b babd 3a0f 203d 6ddc 4abd
00000200: d784 28bd 928b a83c b5ad e53d 52f9 ac3d
00000210: 2fde ed3d a03c f33d 20ab 853d 659e 1dbd
00000220: 6f16 e33d b8e6 f7bb 289b 1b3d 1c80 903d
00000230: 1b9e f4bd 9514 4c3d e4e2 e03d ab75 e63c
00000240: 5ccc 853d 80f4 34bd 1365 44bd dd48 ee3b
00000250: d09b de3d 70b1 e23a 345c 3c3c 408e 68bc
00000260: 8d1d debd 7f24 973c 6530 723d 997c d5bd
00000270: 6b1d 6ebd 99f7 ccbd eac7 ecbd 3121 c1bc
00000280: 9822 113d dc19 2fbc f2a1 073d da01 703c
00000290: 2434 a7bc 2d79 9a3d d58e 803d 83f2 2dbb
000002a0: 851e 31bc 14e2 52bd 8a0b bcbd a1e2 823c
000002b0: ca5f 323d 8e76 993d d079 473c 962e c03d
000002c0: cbc8 cf3d 3fee 37bd 070b c1bc 0e59 bd3d
000002d0: 2ce5 eb3d 5f0c 3abd 4fa1 5a3d 4f08 e4bd
000002e0: a554 053c b131 f43d a423 ecbd 3c92 683d
000002f0: 93b8 d73d 95d4 cc3d aa23 80bd 48e1 8c3d
00000300: ca21 d3bc 8535 063d c21b e4bd e1e0 70bd
00000310: 0bac b03c 669e 853d f975 343d a551 9dbb
00000320: 6478 703c bb16 393a 0e5a 3f3d 2042 533d
00000330: 2c32 bcbd 58ed eabd 00b4 8fbd d7f5 0d3d
00000340: efcd eb3c b9b9 8b3d a688 c43c 9727 383c
00000350: de9e 31bd b2f2 663d 2a8a b8bd 0a1c 6a3d
00000360: 2b3d 083d 0134 61bd 9c4b 1e3d 876f 353d
00000370: 080d c9bc 04e7 cbbd 08be a93d 0458 423d
00000380: 370b f6bd 94d0 d4bd 9231 ba3d a53f a83d
00000390: 04d7 91bd 64b0 d23d 7d98 f23d b0e3 d6bc
000003a0: 6d44 873d 9511 753d 8959 b63d 0a84 5ebd
000003b0: e2d0 cc3d 7c7e 8bbd 1640 c0bd 5eab 89bd
000003c0: af9a f1bd ae79 db3c bbaf 87bd 49f1 17bd
000003d0: c172 5bbd e49f 26bc a2b1 e9bd eb0b c4bd
000003e0: 30d1 c7bb 5798 72bc 00c6 a8bd 2cd8 bcbc
000003f0: 7f67 b8bb 3583 c83d f9d6 973c 6c54 463d

_backbone.linear_layers.3.weight f4 [256, 512]
-0.11799132 0.054578 -0.0077466974 -0.07457896 -0.05188759 0.0031472398 0.012494324 0.013884445
-0.030651957 0.087058194 0.008104836 -0.037383106 0.10029872 0.067363404 -0.093273066 0.072032295
-0.08614396 -0.023976404 -0.016060034 0.020056233 -0.005708594 -0.062732935 0.06123352 0.07007093
-0.07897811 -0.0060548824 -0.04939634 0.042795192 -0.05255707 0.023657368 -0.08489017 0.0068244464
0.024545208 -0.014966006 -0.029830756 0.12118604 0.045803767 0.062238656 0.017462779 -0.08291829
-0.040060036 0.00017829092 -0.050740413 0.016165622 0.0058267224 0.049313337 0.044688255 0.056257587
-0.017824227 -0.031667076 -0.0299835 0.06958546 0.03559868 0.04106683 -0.07446725 -0.0019135856
-0.063366205 0.01866322 0.1040948 -0.031466745 -0.007901193 -0.0014454809 0.045845754 -0.10518611
-0.07344013 0.079186104 0.0032301573 -0.004410128 0.05044867 -0.0069835633 -0.0033616514 0.043452207
0.06765577 -0.08257369 -0.08008113 0.038015 -0.0071975007 0.06569179 0.08603411 -0.04280363
-0.029034283 0.016121121 0.016748525 -0.02916593 0.02473308 0.028250879 -0.040339105 -0.08861502
0.0071647093 -0.0346861 -0.044711795 0.10515783 0.029235495 -0.035067912 0.017584592 0.0004271507
0.07478984 0.09499397 -0.08455759 -0.03380221 0.037310943 0.049947552 -0.015586818 -0.020684792
0.056921534 -0.024987258 0.05178576 0.043010265 -0.036792226 -0.0085471105 -0.03251252 -0.015393435
-0.14707935 0.028749526 -0.03211706 0.0113370055 0.062717065 -0.023887757 -0.003439048 -0.14182054
-0.006104551 0.018818619 0.08942484 -0.038421415 -0.08514148 0.09159641 -0.03721298 -0.022949815
0.05357286 -0.020145139 -0.016227948 0.011882505 0.027290694 -0.05974391 -0.09934663 0.011378461
-0.0025934288 -0.08133715 -0.040417917 -0.08117906 -0.051369984 0.0041272338 -0.0016071548 0.07588673
0.052151743 -0.02414085 0.047294267 -0.030353494 0.009384702 0.082441814 -0.012702085 0.08752541
0.02042952 -0.04369009 0.05020219 -0.05016107 -0.04590588 0.004225269 0.09601592 0.09237086
0.012561964 -0.018544935 -0.019609772 0.08486848 -0.025259228 -0.014630059 0.0066163116 -0.0039642486
-0.064898476 -0.015735812 -0.029705733 0.090881206 -0.067242704 0.083174214 -0.068367586 -0.014463474
0.036462925 -0.045947254 -0.04743157 -0.01588497 0.029893424 0.008370077 0.061990198 -0.05589547
-0.09474957 -0.06912865 0.018296335 -0.14041784 0.0066121663 -0.019409122 -0.040039722 -0.03380894
-0.004293383 -0.018653167 0.018474087 -0.008418723 -0.0010933628 0.059619006 0.009490027 0.031410616
0.06522009 -0.071302384 -0.06969169 -0.07418246 -0.05124735 0.09797203 -0.112447545 -0.07196012
-0.027818937 0.016778959 0.15176189 0.033505164 -0.030467266 0.06660369 0.011318718 0.013462883
0.0278285 0.0060665137 0.04170706 -0.07158597 -0.10952372 0.031072075 0.04242416 0.08261728
-0.06070348 -0.019003788 0.04884515 0.15441845 -0.05123562 -0.007846412 0.09006312 0.08768566
0.03271518 0.0698981 -0.05730888 0.0861416 0.015144397 -0.015327193 -0.0546448 -0.024026055
0.050486717 -0.008903997 0.016109899 0.08711893 0.049573965 0.06891416 -0.009355167 0.0615099
-0.036059186 0.04077502 0.04788205 0.13757493 0.06461781 0.09585607 0.0713555 0.07670829
00000000: 6fa5 f1bd 2e8d 5f3d 02d8 fdbb dbbc 98bd
00000010: 1588 54bd ec41 4e3b feb4 4c3c 957b 633c
00000020: d019 fbbc 914b b23d 25ca 043c 071f 19bd
00000030: 6a69 cd3d d3f5 893d f305 bfbd ab85 933d
00000040: 3f6c b0bd 2a6a c4bc 5590 83bc f84c a43c
00000050: 280f bbbb 207a 80bd 00d0 7a3d 5981 8f3d
00000060: 46bf a1bd 0968 c6bb d153 4abd 034a 2f3d
00000070: 1546 57bd 19cd c13c e6da adbd 9b9f df3b
00000080: 0813 c93c fb33 75bc a15f f4bc 6330 f83d
00000090: bb9c 3b3d f6ed 7e3d 1a0e 8f3c 10d1 a9bd
000000a0: fe15 24bd 9bf3 3a39 2ed5 4fbd c46d 843c
000000b0: 17ee be3b c8fc 493d 080b 373d 5b6e 663d
000000c0: 1d04 92bc 56b5 01bd f59f f5bc d282 8e3d
000000d0: eccf 113d b135 283d 4982 98bd 47d1 faba
000000e0: 24c6 81bd 9ce3 983c a82f d53d 46e3 00bd
000000f0: 0174 01bc 4a76 bdba c2c8 3b3d d16b d7bd
00000100: c767 96bd 532c a23d 0cb1 533b d682 90bb
00000110: 44a3 4e3d 60d6 e4bb 274f 5cbb f1fa 313d
00000120: 1c8f 8a3d 651c a9bd 9301 a4bd 9eb5 1b3d
00000130: 03d9 ebbb 6b89 863d a732 b03d dc52 2fbd
00000140: 4ed9 edbc 7110 843c 3434 893c 63ed eebc
00000150: 079d ca3c 636e e73c 9e3a 25bd cb7b b5bd
00000160: f0c5 ea3b 0313 0ebd b723 37bd fd5c d73d
00000170: 477f ef3c 5fa3 0fbd 900d 903c 32f3 df39
00000180: 6a2b 993d 338c c23d 882c adbd 3074 0abd
00000190: 5cd3 183d ce95 4c3d da5f 7fbc 2773 a9bc
000001a0: 8e26 693d 14b2 ccbc 4e1d 543d 882b 303d
000001b0: 72b3 16bd 2e09 0cbc d92b 05bd bf34 7cbc
000001c0: f89b 16be 2084 eb3c 2e8d 03bd d9be 393c
000001d0: ce71 803d 42b0 c3bc a761 61bb 6739 11be
000001e0: af08 c8bb 8129 9a3c 5f24 b73d c65f 1dbd
000001f0: a85e aebd e696 bb3d a36c 18bd 4001 bcbc
00000200: 376f 5b3d 6b07 a5bc 79f0 84bc d7ae 423c
00000210: bc90 df3c 08b6 74bd 3f76 cbbd b96c 3a3c
00000220: 84f6 29bb 1794 a6bd 428d 25bd 3541 a6bd
00000230: 5569 52bd bf3d 873b 2ba7 d2ba 806a 9b3d
00000240: 119d 553d 08c3 c5bc a2b7 413d e4a7 f8bc
00000250: 4bc2 193c 41d7 a83d 681c 50bc 8640 b33d
00000260: cf5b a73c 61f4 32bd d0a0 4d3d b275 4dbd
00000270: ce07 3cbd 2074 8a3b ffa3 c43d ef2c bd3d
00000280: b2d0 4d3c 8ceb 97bc aca4 a0bc 87cf ad3d
00000290: 71ec cebc eab2 6fbc a5cd d83b 87e6 81bb
000002a0: 7ee9 84bd 64e8 80bc 7059 f3bc ed1f ba3d
000002b0: 8bb6 89bd 3e57 aa3d 4e04 8cbd 35f8 6cbc
000002c0: 265a 153d 3033 3cbd 9b47 42bd 3221 82bc
000002d0: 0ee3 f43c a622 093c 6fe9 7d3d a6f2 64bd
000002e0: 100c c2bd 5293 8dbd 32e2 953c b2c9 0fbe
000002f0: dfaa d83b e1ff 9ebc b100 24bd 3e7b 0abd
00000300: 82af 8cbb 87ce 98bc f856 973c afee 09bc
00000310: 2b4f 8fba 0f33 743d 0f7c 1b3c 6ba8 003d
00000320: 1c92 853d fc06 92bd 84ba 8ebd f9ec 97bd
00000330: bee8 51bd 8fa5 c83d e64a e6bd d45f 93bd
00000340: 8ae4 e3bc 0774 893c 7867 1b3e b63c 093d
00000350: 7d96 f9bc 8467 883d 2572 393c 6d93 5c3c
00000360: 98f8 e33c 9bc9 c63b 06d5 2a3d aa9b 92bd
00000370: f94d e0bd dd8a fe3c f5c4 2d3d 4033 a93d
00000380: 36a4 78bd d5ad 9bbc da11 483d df1f 1e3e
00000390: 71dc 51bd 3d8e 00bc 0373 b83d 8a94 b33d
000003a0: 5a00 063d bc26 8f3d b7bc 6abd 026b b03d
000003b0: 3420 783c e81e 7bbc 3ad3 5fbd 4ad2 c4bc
000003c0: 29cb 4e3d 12e2 11bc e8f8 833c 696b b23d
000003d0: 120e 4b3d de22 8d3d 6a46 19bc cef1 7b3d
000003e0: ccb2 13bd b503 273d f81f 443d 71e0 0c3e
000003f0: 5856 843d 3050 c43d d522 923d 3c19 9d3d

_backbone.linear_layers.3.bias f4 [256]
0.043452706 0.019430213 0.025225298 0.03212486 -0.024314206 -0.014941537 -0.0036399441 -0.016665908
-0.016610246 -0.011856567 -0.018832956 -0.016354294 -0.029407036 -0.021286419 0.03208551 0.01038236
0.043172322 0.00049191696 -0.026691314 -0.031008389 -0.02511224 0.0010380453 -0.029260792 0.0077809296
-0.03537612 0.041645195 -0.00054507464 -0.015172059 0.0025381516 0.007266591 0.03999395 0.02252269
-0.03703559 -0.015362084 -0.005793511 -0.0016188078 -0.014152111 0.010479877 0.03243878 -0.0026754925
-0.0179279 -0.024493288 -0.016313126 -0.008821082 -0.035418797 0.034305822 -0.026846152 -0.03654933
-0.024146508 -0.0074196365 -0.018146172 0.03838236 -0.026323877 0.028404377 -0.017067287 -0.006566795
-0.0015978661 -0.011795501 0.031175459 0.015575157 -0.014558222 -0.026873862 -0.013411274 -0.0048521557
-0.03994451 0.03544829 -0.018322626 0.0028968372 0.03750447 0.039541688 -0.0057221036 0.009615355
0.024119899 0.041826896 -0.022121152 -0.027452866 -0.04148631 -0.031008178 -0.010214594 -0.022773722
0.009632041 0.011621467 0.011115425 0.029787064 0.014912155 -0.000951149 -0.02795602 -0.024310334
0.028131276 0.044124916 0.004736389 -0.040050168 -0.043676242 0.018854203 -0.0121734375 0.0022310803
0.01840191 -0.03488759 -0.028765962 -0.03722222 0.024255553 0.019110154 -0.016608514 -0.035076793
-0.03743055 0.0067880237 0.04385416 0.013157466 0.020553548 0.04293453 0.03629897 -0.040654644
0.019745588 0.037670393 -0.01135237 0.01336937 0.02258601 0.041189693 0.043738443 -0.03322956
-0.019051656 0.019562764 -0.03201148 -0.017809799 -0.023246374 -0.029867811 -0.02899709 0.034351856
0.025580913 -0.0009600367 -0.0042447303 0.0014452417 0.0352553 -0.02380033 -0.00658387 -0.018624876
-0.034018055 0.011616646 -0.0024479786 -0.017841004 -0.043505 -0.034894787 -0.032543283 -0.01043234
0.011977618 0.008942624 -0.034278005 -0.008559841 0.04256156 -0.00690299 -0.00043627783 -0.03327509
-0.012766296 -0.04111114 0.036537167 0.020435715 -0.0075949146 0.020302754 0.004737337 0.025642822
-0.026949 -0.0063409614 0.0403599 -0.03517559 0.011970321 -0.010611175 0.0032201668 0.01066419
0.019896394 0.008567396 -0.02982019 -0.03380523 0.038068127 -0.029755501 -0.016871188 0.011385518
-0.02173218 -0.0073663997 0.009431622 -0.03992858 -0.00064593734 0.036357347 -0.008704636 -0.016860077
0.009430373 0.005899289 0.036621995 0.019281972 -0.020826375 -0.026987785 0.023255782 -0.020862315
0.024907427 0.0014899859 0.038207855 -0.011094657 0.025840007 0.022024231 0.01963629 -0.0012517561
-0.020061968 0.037963483 -0.006060722 -0.029323643 0.03588181 0.04282202 -0.0012254671 -0.02124169
0.029035095 0.040678624 0.0006912452 0.03746077 -0.011295787 0.021841113 -0.0019598021 0.03758877
0.041584663 0.019370496 0.039244648 0.02820907 -0.028955322 0.031242263 -0.042398702 -0.040310226
-0.026762126 0.03209678 -0.0060655214 0.012265233 -0.019076923 0.03714876 0.043534342 0.008736784
-0.03140728 0.007902397 -0.005832165 0.037789717 0.013323561 0.014530495 -0.006156053 -0.014242869
-0.034847856 0.0021869051 0.001671623 -0.0045042494 -0.01240181 -0.011279998 -0.03196307 -0.020075133
-0.021998705 -0.022597538 0.033326477 0.043306306 0.025626726 0.01657647 0.030553984 0.029395161
00000000: 77fb 313d 1c2c 9f3c 49a5 ce3c 5b95 033d
00000010: 962e c7bc 59cd 74bc 218c 6ebb f186 88bc
00000020: 3612 88bc 0c42 42bc 9247 9abc 71f9 85bc
00000030: 06e7 f0bc db60 aebc 196c 033d c61a 2a3c
00000040: 76d5 303d fdf3 003a bea7 dabc 4e05 febc
00000050: 2fb8 cdbc 050f 883a 54b4 efbc 2bf7 fe3b
00000060: 8de6 10bd 2794 2a3d 57e3 0eba 3a94 78bc
00000070: 1e57 263b 951c ee3b b2d0 233d 8181 b83c
00000080: a1b2 17bd 40b1 7bbc 7ed7 bdbb 2d2e d4ba
00000090: 41de 67bc cab3 2b3c 87de 043d 5157 2fbb
000000a0: 88dd 92bc 26a6 c8bc 1ba3 85bc 4d86 10bc
000000b0: 4d13 11bd 4384 0c3d 76ec dbbc c0b4 15bd
000000c0: e6ce c5bc 6c20 f3bb 48a7 94bc d236 1d3d
000000d0: 2ca5 d7bc 4cb0 e83c b2d0 8bbc 452e d7bb
000000e0: 7d6f d1ba eb41 41bc ad63 ff3c f12e 7f3c
000000f0: 9c85 6ebc 9326 dcbc f6ba 5bbc d5fe 9ebb
00000100: db9c 23bd 3a32 113d 5519 96bc ddd8 3d3b
00000110: 4a9e 193d 77f6 213d 7c80 bbbb b989 1d3c
00000120: 1897 c53c ae52 2b3d 6b37 b5bc d5e4 e0bc
00000130: 8ded 29bd dd04 febc 1d5b 27bc f58f babc
00000140: b5cf 1d3c f767 3e3c 791d 363c 0004 f43c
00000150: 1d52 743c 8756 79ba 0604 e5bc 7726 c7bc
00000160: 9073 e63c 54bc 343d b633 9b3b a50b 24bd
00000170: dce5 32bd 2174 9a3c 1973 47bc 5137 123b
00000180: 9abf 963c 4ae6 0ebd 98a6 ebbc 5476 18bd
00000190: 95b3 c63c e68c 9c3c 940e 88bc afac 0fbd
000001a0: c750 19bd 126e de3b 6ba0 333d 6a92 573c
000001b0: ea5f a83c 1edc 2f3d 3bae 143d 7c85 26bd
000001c0: 80c1 a13c 454c 1a3d 4aff 39bc 340b 5b3c
000001d0: 4c06 b93c 86b6 283d 1527 333d b81b 08bd
000001e0: 3812 9cbc 1742 a03c 781e 03bd dbe5 91bc
000001f0: 2e6f bebc 57ad f4bc 4e8b edbc 88b4 0c3d
00000200: 108f d13c f9aa 7bba 6117 8bbb 446e bd3a
00000210: dd67 103d e9f8 c2bc 81bd d7bb 3293 98bc
00000220: 8456 0bbd bf53 3e3c 446e 20bb 4c27 92bc
00000230: 4d32 32bd d6ed 0ebd 1b4c 05bd 68ec 2abc
00000240: c53d 443c 1584 123c 1867 0cbd 933e 0cbc
00000250: 0855 2e3d 7a32 e2bb 38bc e4b9 764b 08bd
00000260: ba29 51bc 2864 28bd ffa7 153d cd68 a73c
00000270: c3de f8bb f651 a63c aa3b 9b3b e510 d23c
00000280: 26c4 dcbc d7c7 cfbb 6c50 253d 4814 10bd
00000290: 2a1f 443c 7eda 2dbc 6f09 533b dbb8 2e3c
000002a0: c3fd a23c 435e 0c3c 7949 f4bc 5a77 0abd
000002b0: 53ed 1b3d cfc1 f3bc 7235 8abc 538a 3a3c
000002c0: af07 b2bc d761 f1bb 1787 1a3c 278c 23bd
000002d0: 1f54 29ba 71eb 143d e49d 0ebc 251e 8abc
000002e0: da81 1a3c d34e c13b f200 163d 3af5 9d3c
000002f0: 139c aabc 7d15 ddbc e982 be3c 72e7 aabc
00000300: a90a cc3c a14b c33a d77f 1c3d 5dc6 35bc
00000310: 6cae d33c 296c b43c 49dc a03c f711 a4ba
00000320: ff58 a4bc 997f 1b3d 0599 c6bb 2338 f0bc
00000330: cef8 123d 2466 2f3d da9f a0ba 0d03 aebc
00000340: 02db ed3c a19e 263d ae34 353a 7770 193d
00000350: f711 39bc 22ec b23c 0670 00bb aff6 193d
00000360: ae54 2a3d e0ae 9e3c ffbe 203d b516 e73c
00000370: b633 edbc c6ef ff3c 43aa 2dbd 561c 25bd
00000380: 3f3c dbbc ea77 033d 48c1 c6bb 1ef4 483c
00000390: 3547 9cbc 4c29 183d 1151 323d ba24 0f3c
000003a0: eca4 00bd 0e79 013c bf1b bfbb 64c9 1a3d
000003b0: 114b 5a3c 5011 6e3c b7b8 c9bb ec5a 69bc
000003c0: a0bc 0ebd 2e52 0f3b 5c1a db3a 6298 93bb
000003d0: f630 4bbc becf 38bc b5eb 02bd 9b74 a4bc
000003e0: a136 b4bc 791e b9bc 5881 083d f461 313d
000003f0: 24ef d13c 61cb 873c 594c fa3c 1fce f03c

_backbone.linear_layers.6.weight f4 [16, 256]
0.05858939 -0.15434404 -0.03530762 0.13209471 0.1919273 -0.04095938 -0.05859708 0.17377174
0.0099312905 0.026991647 -0.1290184 0.11048929 0.058851466 0.047534302 0.014635846 0.11837691
-0.13478053 -0.16337588 0.15530707 0.15172878 -0.060750145 -0.105310895 -0.07824402 0.031528678
-0.001070745 -0.04914607 -0.0008812509 0.19634685 0.028268771 -0.07801186 -0.08307618 0.109277494
-0.15721498 -0.0018850549 -0.19863504 0.20587389 -0.084869936 0.017650263 0.061010793 0.08780711
0.0062955404 0.13414007 0.121011436 -0.022992412 0.02311232 0.09052474 -0.052191228 -0.16475922
0.015578053 0.048283193 -0.14019889 0.00952415 -0.051915843 -0.12502943 0.018200548 0.030061476
-0.13106777 0.013846744 0.17319506 -0.006849987 -0.10436868 0.014394161 0.058355987 0.1189303
-0.021768533 0.13303463 -3.2920158e-05 -0.08472011 0.059575833 -0.019890184 -0.04002369 -0.014919068
0.110744685 0.155142 0.047106277 -0.009002416 -0.11825478 0.06173794 -0.084957875 -0.018036775
-0.063234374 0.06122319 0.042954654 -0.09042487 -0.01135469 0.12604128 0.013319726 0.014009426
0.017836772 0.060472235 -0.033661824 0.14921653 -0.008282902 0.021422913 0.07379518 0.001975146
0.006733469 -0.0082673505 -0.109149896 0.057395197 -0.086473115 0.013688565 -0.09150635 -0.120325446
-0.15801245 -0.11903025 -0.028026618 -0.10055202 0.012372557 0.20000996 0.07582172 0.09691082
-0.064083636 -0.08015982 -0.15036331 0.12284127 -0.09637304 0.00016927368 -0.01747915 0.042256836
0.039232932 0.10232751 0.16017781 0.10774426 -0.105546795 -0.009022874 -0.052859798 -0.14276902
0.11116717 -0.052976582 -0.11724884 -0.06218011 -0.12024783 0.11945718 -0.050220355 -0.12602675
0.1452809 -0.0061756605 0.025503783 -0.0384683 -0.098931104 0.027129222 0.006139422 0.24241662
0.015875222 -0.11701951 -0.11665023 -0.095983274 0.010920174 -0.08032522 0.1372683 0.06886042
-0.18102019 -0.022036498 -0.016059114 -0.040495828 -0.06680187 0.032085475 -0.04281733 -0.10154199
-0.13305506 -0.09194221 -0.10877286 0.023899771 -0.05920875 -0.0956656 -0.013414984 -0.02139687
-0.017617803 -0.10668515 0.01614358 0.008952501 0.03710258 -0.021921977 -0.18608737 -0.058839537
0.059854247 0.036565967 -0.107132524 0.008419191 -0.014008249 -0.15300481 -0.039881267 -0.10004105
0.12401473 0.023029577 0.053966362 0.07536777 -0.05455451 0.16302899 -0.14235537 0.112106286
0.2089644 -0.0603914 -0.008934223 -0.031980567 0.09621045 0.028521106 0.02883153 -0.121392846
-0.04407758 0.057394043 -0.007726945 -0.2011252 0.17831163 0.09297821 -0.06447763 -0.09340912
0.08120705 0.14211442 0.1569338 0.13860697 -0.31392738 0.026808893 -0.063349724 -0.16136073
-0.07408388 -0.028976759 0.008516474 -0.08690736 -0.08990609 0.12933998 0.121501364 0.053842355
0.102163695 -0.15230665 -0.1690594 0.021980235 0.06772722 -0.036541563 0.036499493 0.063617565
-0.0780099 0.06727032 0.07047461 0.11235457 -0.23305424 -0.032281455 0.14411092 0.022608558
-0.13116199 0.001698326 -0.1671674 -0.13651368 -0.13120878 0.010698819 0.024412885 -0.039338693
-0.009803168 -0.09545849 0.028189324 -0.014091834 0.019817756 0.011791667 0.12477766 -0.046658438
00000000: 6efb 6f3d 5d0c 1ebe b99e 10bd d643 073e
00000010: 9788 443e 06c5 27bd 7e03 70bd 38f1 313e
00000020: dab6 223c 961d dd3c 661d 04be 3548 e23d
00000030: 3c0e 713d 54b3 423d 30cb 6f3c 986f f23d
00000040: e803 0abe 024c 27be d108 1f3e ca5e 1b3e
00000050: 25d5 78bd 3dad d7bd 673e a0bd 3724 013d
00000060: 3e58 8cba 644d 49bd bf03 67ba 260f 493e
00000070: e993 e73c afc4 9fbd d823 aabd e1cc df3d
00000080: f7fc 20be f213 f7ba fc66 4bbe 9bd0 523e
00000090: 4ad0 adbd 4997 903c 74e6 793d 37d4 b33d
000000a0: d24a ce3b 045c 093e d8d4 f73d 955a bcbc
000000b0: 0c56 bd3c 0965 b93d 78c6 55bd a4b6 28be
000000c0: 173b 7f3c 99c4 453d 4c90 0fbe 2e0b 1c3c
000000d0: b5a5 54bd b707 00be 5119 953c 7c43 f63c
000000e0: a136 06be 74dd 623c 0c5a 313e db75 e0bb
000000f0: 3fbf d5bd 7dd5 6b3c b006 6f3d bb91 f33d
00000100: ec53 b2bc 3b3a 083e c013 0ab8 bd81 adbd
00000110: ca05 743d bdf0 a2bc e1ef 23bd 1b6f 74bc
00000120: 1cce e23d 8bdd 1e3e 83f2 403d df7e 13bc
00000130: 902f f2bd ece0 7c3d 65fe adbd dcc1 93bc
00000140: 0681 81bd 2bc5 7a3d 38f1 2f3d ad30 b9bd
00000150: 0609 3abc f710 013e fb3a 5a3c cb87 653c
00000160: 6c1e 923c bcb1 773d fbe0 09bd 38cc 183e
00000170: 02b5 07bc 1b7f af3c ed21 973d 7371 013b
00000180: 6fa4 dc3b c873 07bc fb89 dfbd 3a17 6b3d
00000190: d118 b1bd 0146 603c ae67 bbbd 306d f6bd
000001a0: 04ce 21be 22c6 f3bd 1498 e5bc 38ee cdbd
000001b0: 44b6 4a3c 69cf 4c3e 6b48 9b3d 2e79 c63d
000001c0: 483e 83bd d52a a4bd d7f8 19be 3494 fb3d
000001d0: 3a5f c5bd 0f7f 3139 6f30 8fbc 8115 2d3d
000001e0: b6b2 203d 1691 d13d a705 243e 06a9 dc3d
000001f0: eb28 d8bd add4 13bc 8483 58bd 0b32 12be
00000200: 9dab e33d f9fd 58bd 2920 f0bd 92b0 7ebd
00000210: 7f44 f6bd f7a5 f43d dcb3 4dbd 280d 01be
00000220: 84c4 143e 325d cabb 4fed d03c f090 1dbd
00000230: 649c cabd 1a3e de3c 342d c93b 103c 783e
00000240: c10c 823c eda7 efbd 51e6 eebd e192 c4bd
00000250: 88ea 323c 8d81 a4bd 1090 0c3e b106 8d3d
00000260: 5b5d 39be e385 b4bc 678e 83bc f4de 25bd
00000270: 6bcf 88bd 0f6c 033d 3a61 2fbd 3ff5 cfbd
00000280: 963f 08be 334c bcbd 4ec4 debd 74c9 c33c
00000290: e084 72bd 53ec c3bd 85ca 5bbc 7d48 afbc
000002a0: 3653 90bc be7d dabd 8b3f 843c 83ad 123c
000002b0: e0f8 173d b895 b3bc b08d 3ebe ba01 71bd
000002c0: ba29 753d 32c6 153d 4c68 dbbd a6f0 093c
000002d0: db82 65bc 4bad 1cbe 8a5a 23bd 52e2 ccbd
000002e0: 6ffb fd3d 86a8 bc3c d50b 5d3d 6b5a 9a3d
000002f0: 8d74 5fbd 12f1 263e 9bc5 11be fb97 e53d
00000300: c4fa 553e f95c 77bd d960 12bc 0efe 02bd
00000310: fc09 c53d 18a5 e93c 1a30 ec3c d09c f8bd
00000320: b18a 34bd 0416 6b3d 5032 fdbb c4f3 4dbe
00000330: 5397 363e 5c6b be3d d90c 84bd 484d bfbd
00000340: e24f a63d 7186 113e 41b3 203e fcee 0d3e
00000350: 17bb a0be 539e db3c 80bd 81bd bf3b 25be
00000360: 4ab9 97bd ab60 edbc ae88 0b3c 7cfc b1bd
00000370: af20 b8bd b371 043e b5d5 f83d cd89 5c3d
00000380: 333b d13d 46f6 1bbe e81d 2dbe e50f b43c
00000390: 92b4 8a3d 9bac 15bd 7e80 153d ed49 823d
000003a0: a8c3 9fbd 06c5 893d fe54 903d 271a e63d
000003b0: c5a5 6ebe 8f39 04bd d091 133e 9535 b93c
000003c0: 544f 06be 5d9a de3a ee2d 2bbe 3eca 0bbe
000003d0: 985b 06be 194a 2f3c 88fd c73c 9c21 21bd
000003e0: 779d 20bc be7f c3bd 4ced e63c 70e1 66bc
000003f0: d958 a23c d631 413c 6e8b ff3d eb1c 3fbd

_backbone.linear_layers.6.bias f4 [16]
-0.015566669 -0.03797915 0.018103033 -0.023950674 -0.018278763 -0.029837742 -0.06165646 -0.022218779
-0.0030491874 -0.02783607 -0.043020144 -0.062269412 0.002703309 -0.041078463 0.0231812 0.010047026
00000000: 580b 7fbc 0690 1bbd d04c 943c 3434 c4bc
00000010: 58bd 95bc 486e f4bc 7c8b 7cbd 2804 b6bc
00000020: e0d4 47bb 7808 e4bc e435 30bd 360e 7fbd
00000030: 002a 313b e441 28bd 80e6 bd3c 489c 243c

_embedding_layer.cat_embedding_layers.0.weight f4 [8, 4]
-0.0017516996 -0.7562174 -0.2734345 0.5776279 -0.6097438 -0.7839597 -1.4821548 -1.6338594
0.2811501 -0.030917896 0.72933906 -0.03904447 -0.91883206 0.19377701 0.24222109 0.25914365
-0.5124253 -0.9845369 -0.7193091 0.748023 -0.49044982 -0.28173974 -0.72711635 -1.8340421
0.0041978694 0.09298793 -2.065414 0.61893415 0.2785314 0.6903148 -0.16808864 -0.2728183
00000000: 4999 e5ba 7797 41bf 9bff 8bbe 6cdf 133f
00000010: 2b18 1cbf 95b1 48bf 40b7 bdbf 4e22 d1bf
00000020: e8f2 8f3e 8747 fdbc f7b5 3a3f 18ed 1fbd
00000030: 9438 6bbf 7b6d 463e ce08 783e 7aae 843e
00000040: 4e2e 03bf 9c0a 7cbf a424 38bf 6f7e 3f3f
00000050: 3d1c fbbe 3140 90be 4c24 3abf e4c1 eabf
00000060: 488e 893b 7570 be3d be2f 04c0 7872 1e3f
00000070: ab9b 8e3e 79b8 303f 6e1f 2cbe d7ae 8bbe

_embedding_layer.cat_embedding_layers.1.weight f4 [10, 5]
-0.95566 -0.8523128 -1.0875372 0.4918493 -1.4570618 0.45588663 -2.0002337 0.9622669
-0.6377847 -1.7955124 0.17350237 -0.16745673 0.069566905 0.6516434 0.095771484 -0.4269972
0.47123957 -1.5499701 0.20459385 0.6350842 1.9158504 -0.63578147 -1.5373726 -0.7335533
2.9647295 -0.0101863295 -0.026947405 -0.35046434 -0.5381408 -2.23726 0.07919881 -1.0568475
-0.66742444 0.20953712 0.14468719 -1.3055162 0.37313056 1.2307229 0.65241003 -0.123892374
0.24903922 -0.80081075 1.4317346 1.3802657 0.9077418 0.17779702 1.1523099 1.9344159
2.606638 1.4741993
00000000: 22a6 74bf 2c31 5abf 6b34 8bbf acd3 fb3e
00000010: 0081 babf f969 e93e d403 00c0 2057 763f
00000020: dc45 23bf 5ad3 e5bf 9baa 313e c779 2bbe
00000030: 1879 8e3d 1ad2 263f d723 c43d 619f dabe
00000040: 5046 f13e 6c65 c6bf 0d81 513e e194 223f
00000050: 963a f53f 93c2 22bf a0c8 c4bf 26ca 3bbf
00000060: 21be 3d40 90e4 26bc cec0 dcbc 1070 b3be
00000070: 98c3 09bf 452f 0fc0 fc32 a23d c746 87bf
00000080: 54dc 2abf e690 563e e128 143e 281b a7bf
00000090: f80a bf3e 5488 9d3f 5804 273f 49bb fdbd
000000a0: 2304 7f3e ef01 4dbf 1443 b73f 8cac b03f
000000b0: c461 683f 6c10 363e e47e 933f f19a f73f
000000c0: 28d3 2640 90b2 bc3f

_embedding_layer.cat_embedding_layers.2.weight f4 [8, 4]
0.5671368 -2.047959 -0.20656481 -0.89043945 0.13216111 -1.1660618 -0.28234372 0.8816849
0.67238957 0.17359294 -0.04853046 1.0343107 0.90189046 -2.4977825 -0.041077975 -0.15734537
0.018871496 1.3413874 0.07339913 -0.8759761 -0.5484218 1.4745339 -0.13782588 -0.83556736
-0.6772241 -0.2965961 -0.59720266 1.7092121 -0.9466914 -0.012709518 1.3073281 -0.35122508
00000000: e12f 113f c311 03c0 ba85 53be d7f3 63bf
00000010: 3e55 073e 8341 95bf 5b8f 90be 1ab6 613f
00000020: b921 2c3f 59c2 313e e0c7 46bd 4b64 843f
00000030: 4be2 663f abdb 1fc0 6141 28bd 251f 21be
00000040: 6598 9a3c 95b2 ab3f 4852 963d f83f 60bf
00000050: 5f65 0cbf 87bd bc3f 3a22 0dbe bee7 55bf
00000060: 8f5e 2dbf 72db 97be 46e2 18bf 76c7 da3f
00000070: 5e5a 72bf 953b 50bc 8756 a73f c6d3 b3be

_embedding_layer.cat_embedding_layers.3.weight f4 [5, 3]
-0.68839586 0.411594 -0.10364266 -2.1188703 -0.4693079 0.30060837 -1.1098433 -0.56232345
0.533615 1.2821534 -0.038257923 0.06147885 0.37798983 -0.21315326 -0.2366298
00000000: b63a 30bf 73bc d23e 9a42 d4bd 929b 07c0
00000010: 2049 f0be 57e9 993e 580f 8ebf 6ef4 0fbf
00000020: fe9a 083f 9a1d a43f 57b4 1cbd 3fd1 7b3d
00000030: e287 c13e d944 5abe 154f 72be

_embedding_layer.cat_embedding_layers.4.weight f4 [12, 6]
1.4928447 0.2712451 -0.8481475 -0.51911104 -1.5501825 0.17513137 -0.64165884 -0.20157781
0.20593871 0.5127238 0.54907614 0.18823938 0.1099671 -0.4233878 0.32125247 0.19207843
-0.6438527 0.35676932 0.03958731 -0.19560349 -1.2573825 0.8605041 -2.1209707 0.6380743
0.74841714 -0.88905346 -0.75485843 0.6036689 1.3179016 -0.7952327 2.1357543 2.173951
-0.55217695 0.74821156 0.7376571 0.55705297 -0.33999386 -1.2050965 -1.9836571 -0.9542681
1.034467 -0.43647075 0.24741624 -0.17965487 1.0850891 0.8139869 -1.1704859 0.6335586
0.22143789 0.24773814 0.01823142 1.9128987 -1.4127666 0.11208991 0.8426283 -0.2473243
0.9663998 -2.1515644 0.38044733 0.68167114 1.8151516 -0.1987605 -2.1099706 0.3417338
0.4183807 -0.5278518 0.6475468 -0.27557036 0.93555784 -0.35773382 0.12725191 0.2558214
00000000: 8915 bf3f a3e0 8a3e 3220 59bf 76e4 04bf
00000010: 616c c6bf a355 333e c143 24bf 6a6a 4ebe
00000020: 99e1 523e de41 033f 4190 0c3f d3c1 403e
00000030: 6e36 e13d 49c6 d8be 347b a43e 35b0 443e
00000040: 88d3 24bf 78aa b63e 4e26 223d 484c 48be
00000050: e9f1 a0bf ff49 5c3f fcbd 07c0 d658 233f
00000060: 4498 3f3f 0299 63bf 673e 41bf 0c8a 1a3f
00000070: 00b1 a83f 5f94 4bbf 33b0 0840 0322 0b40
00000080: 785b 0dbf cb8a 3f3f 19d7 3c3f 069b 0e3f
00000090: ad13 aebe 9a40 9abf 7ae8 fdbf ea4a 74bf
000000a0: 6a69 843f 1879 dfbe af5a 7d3e 72f7 37be
000000b0: 33e4 8a3f 7261 503f 7bd2 95bf e530 223f
000000c0: 9dc0 623e 11af 7d3e 0f5a 953c ddd9 f43f
000000d0: 89d5 b4bf 658f e53d 7db6 573f 9542 7dbe
000000e0: fa65 773f 3bb3 09c0 fec9 c23e 0082 2e3f
000000f0: e356 e83f df87 4bbe c209 07c0 bcf7 ae3e
00000100: ff35 d63e 4c21 07bf a1c5 253f 8f17 8dbe
00000110: b880 6f3f e328 b7be 534e 023e 06fb 823e

_embedding_layer.cat_embedding_layers.5.weight f4 [12, 6]
0.6017539 -1.2297267 -0.00082874973 -0.323326 -0.44166678 -0.1365367 1.0580604 0.33545083
-1.034184 0.46346524 0.3661791 1.4281076 0.99839306 -0.86493856 -0.3059002 0.6187252
0.12442761 0.20344807 0.37736577 0.81538564 1.9032178 -0.9610295 0.055617653 -1.5123439
-0.2344418 1.2151626 0.8813832 -0.6946588 0.92929053 -0.922793 -1.0765759 -0.07098875
-0.35178047 0.78472453 0.6197801 -0.9140206 -0.29776442 -1.5311917 -0.16829643 -1.3473797
-0.4476976 -0.20372763 0.05746766 0.5538427 0.43422455 0.67692816 1.3509245 -1.0086211
-2.180197 -0.47624147 1.582037 -2.54915 -0.23062885 0.31891587 -0.8192098 0.34726948
2.6725287 0.37735516 -0.5775311 -1.0597376 0.06448969 0.2572651 -1.2315831 -0.14646992
1.2040551 0.93205386 2.301719 0.83624315 -0.2205594 0.96727926 0.7152821 0.5545748
00000000: 8b0c 1a3f af67 9dbf 7440 59ba fc8a a5be
00000010: 2622 e2be 47d0 0bbe 866e 873f 36c0 ab3e
00000020: 2460 84bf 514b ed3e d47b bb3e 3bcc b63f
00000030: b096 7f3f 9d6c 5dbf f39e 9cbe c664 1e3f
00000040: e7d3 fe3d b154 503e 1636 c13e 1dbd 503f
00000050: a49c f33f 0806 76bf 56cf 633d 7c94 c1bf
00000060: 8311 70be 738a 9b3f 54a2 613f 29d5 31bf
00000070: fce5 6d3f 293c 6cbf 3dcd 89bf 8d62 91bd
00000080: 921c b4be b5e3 483f e9a9 1e3f 41fd 69bf
00000090: 9474 98be 17fe c3bf e655 2cbe f076 acbf
000000a0: 9f38 e5be fa9d 50be 3663 6b3d a3c8 0d3f
000000b0: ae52 de3e 2a4b 2d3f 18eb ac3f 7f1a 81bf
000000c0: 5988 0bc0 ecd5 f3be 3080 ca3f 4625 23c0
000000d0: f829 6cbe f148 a33e bcb7 51bf 4ecd b13e
000000e0: b60a 2b40 b234 c13e 14d9 13bf 7ba5 87bf
000000f0: 2c13 843d 40b8 833e 84a4 9dbf 36fc 15be
00000100: 7a1e 9a3f 159b 6e3f 5d4f 1340 0814 563f
00000110: 53da 61be 9d9f 773f ba1c 373f 9df8 0d3f

_embedding_layer.cat_embedding_layers.6.weight f4 [4, 2]
0.0060957926 -1.016618 -1.2383019 -0.83406436 -0.71690744 0.06331217 -0.026918203 -0.57666755
00000000: 37bf c73b 8a20 82bf ad80 9ebf 3e85 55bf
00000010: 3f87 37bf d0a9 813d 9083 dcbc 7ca0 13bf

_embedding_layer.cat_embedding_layers.7.weight f4 [6, 3]
-1.7198106 0.34117216 -0.2898676 0.010845662 0.08430243 1.3537312 0.419461 1.032987
-2.2794533 -1.1676252 -0.7076526 -1.1638683 0.34709686 0.33954248 -1.1339684 -0.6572795
1.1105897 0.8470781
00000000: c122 dcbf 1eae ae3e 8769 94be 01b2 313c
00000010: c1a6 ac3d 1047 ad3f 98c3 d63e eb38 843f
00000020: 90e2 11c0 be74 95bf b928 35bf a3f9 94bf
00000030: aeb6 b13e 83d8 ad3e e025 91bf 7843 28bf
00000040: ce27 8e3f 1cda 583f

_embedding_layer.cat_embedding_layers.8.weight f4 [7, 4]
-0.72409904 1.4015445 0.8941263 -1.2600365 1.324909 -0.09536608 0.17944114 -0.9809888
-1.1992867 -0.58140486 0.83236307 -0.7796957 0.27900305 -1.7201953 1.3936502 0.5285393
0.7468272 -1.0414159 2.2034838 1.6610308 -0.0803824 -0.9546869 -1.0779427 -0.018794179
-0.63222957 -1.1679031 -0.055671394 0.49156725
00000000: 8e5e 39bf cf65 b33f 76e5 643f e048 a1bf
00000010: 9e96 a93f 4b4f c3bd 6bbf 373e 1522 7bbf
00000020: 3a82 99bf f3d6 14bf bf15 553f 239a 47bf
00000030: 7dd9 8e3e 5c2f dcbf 2163 b23f 5a4e 073f
00000040: 1130 3f3f 1e4d 85bf e105 0d40 a89c d43f
00000050: 879f a4bd 5c66 74bf 07fa 89bf 40f6 99bc
00000060: ccd9 21bf d97d 95bf b007 64bd b4ae fb3e

_embedding_layer.cat_embedding_layers.9.weight f4 [9, 5]
1.2403566 -1.9507364 -1.0607116 -0.16043757 -0.94235086 0.1904429 -2.0183244 0.62929475
-0.4407139 0.6041524 -0.5735684 -1.6197445 -0.5744919 -0.2650557 0.14044301 -0.15447709
-0.680426 2.0900326 1.6770278 1.8426415 0.24115182 -0.6069514 -1.6821148 -0.60758185
0.076635346 -0.05024718 0.8808427 -2.2268767 -0.15530017 -0.73890126 0.029849818 1.1285549
0.981021 1.7541084 -1.348016 -0.2989028 -0.03377363 -1.1993437 -0.7058421 -0.11203557
0.7905393 0.2907318 0.77491605 -0.39970946 0.80323935
00000000: 01c4 9e3f bbb1 f9bf 66c5 87bf bf49 24be
00000010: e83d 71bf 7703 433e 3a2c 01c0 7619 213f
00000020: 41a5 e1be bba9 1a3f 61d5 12bf ca53 cfbf
00000030: e711 13bf 61b5 87be 4bd0 0f3e 3e2f 1ebe
00000040: 6630 2ebf 18c3 0540 d9a8 d63f addb eb3f
00000050: 81f0 763e 2b61 1bbf 8a4f d7bf 7c8a 1bbf
00000060: fef2 9c3d fdcf 4dbd e87e 613f 2685 0ec0
00000070: 0207 1fbe a228 3dbf 9b87 f43c 7d74 903f
00000080: 3124 7b3f a086 e03f ca8b acbf ca09 99be
00000090: 3856 0abd 1884 99bf 11b2 34bf e872 e5bd
000000a0: c960 4a3f ccda 943e e660 463f b8a6 ccbe
000000b0: 18a1 4d3f

_embedding_layer.cat_embedding_layers.10.weight f4 [9, 5]
0.02861446 1.7709142 -1.7534018 1.4202018 -1.5074836 2.257486 1.4047234 2.28213
0.15357332 -0.9106917 1.0354629 -2.1967413 -0.99036705 1.8767388 1.8404976 0.7579619
-0.7495373 1.2476586 -1.2030551 -0.57685935 -0.03140884 -0.6920269 1.6272525 2.3654432
-0.20592956 -0.4319096 -1.993166 0.45858052 0.9121709 -0.70411086 2.842005 0.175689
-0.061531905 -0.3222828 -1.4050314 2.2749324 -0.25194103 0.6459135 -0.99102557 1.2333938
-0.24611491 0.5141456 1.6277463 0.96375406 -0.58822614
00000000: df68 ea3c 51ad e23f 786f e0bf 2cc9 b53f
00000010: 39f5 c0bf a77a 1040 facd b33f 6b0e 1240
00000020: 5342 1d3e 1723 69bf 0c8a 843f 6997 0cc0
00000030: b288 7dbf fa38 f03f 6d95 eb3f cb09 423f
00000040: ade1 3fbf 47b3 9f3f b6fd 99bf 0ead 13bf
00000050: 8ea6 00bd ad28 31bf cf49 d03f 6c63 1740
00000060: 33df 52be 4123 ddbe 1020 ffbf 11cb ea3e
00000070: 0884 693f 9c40 34bf 69e3 3540 d1e7 333e
00000080: e108 7cbd 4002 a5be 12d8 b3bf 7e98 1140
00000090: 6afe 80be 965a 253f dab3 7dbf d9df 9d3f
000000a0: 8c05 7cbe 0c9f 033f fe59 d03f 96b8 763f
000000b0: fd95 16bf

_embedding_layer.normalizing_batch_norm.bn.weight f4 [21]
1.0 1.0 1.0 1.0 1.0 1.0 1.0 1.0
1.0 1.0 1.0 1.0 1.0 1.0 1.0 1.0
1.0 1.0 1.0 1.0 1.0
00000000: 0000 803f 0000 803f 0000 803f 0000 803f
00000010: 0000 803f 0000 803f 0000 803f 0000 803f
00000020: 0000 803f 0000 803f 0000 803f 0000 803f
00000030: 0000 803f 0000 803f 0000 803f 0000 803f
00000040: 0000 803f 0000 803f 0000 803f 0000 803f
00000050: 0000 803f

_embedding_layer.normalizing_batch_norm.bn.bias f4 [21]
0.0 0.0 0.0 0.0 0.0 0.0 0.0 0.0
0.0 0.0 0.0 0.0 0.0 0.0 0.0 0.0
0.0 0.0 0.0 0.0 0.0
00000000: 0000 0000 0000 0000 0000 0000 0000 0000
00000010: 0000 0000 0000 0000 0000 0000 0000 0000
00000020: 0000 0000 0000 0000 0000 0000 0000 0000
00000030: 0000 0000 0000 0000 0000 0000 0000 0000
00000040: 0000 0000 0000 0000 0000 0000 0000 0000
00000050: 0000 0000

_embedding_layer.normalizing_batch_norm.bn.running_mean f4 [21]
0.0 0.0 0.0 0.0 0.0 0.0 0.0 0.0
0.0 0.0 0.0 0.0 0.0 0.0 0.0 0.0
0.0 0.0 0.0 0.0 0.0
00000000: 0000 0000 0000 0000 0000 0000 0000 0000
00000010: 0000 0000 0000 0000 0000 0000 0000 0000
00000020: 0000 0000 0000 0000 0000 0000 0000 0000
00000030: 0000 0000 0000 0000 0000 0000 0000 0000
00000040: 0000 0000 0000 0000 0000 0000 0000 0000
00000050: 0000 0000

_embedding_layer.normalizing_batch_norm.bn.running_var f4 [21]
1.0 1.0 1.0 1.0 1.0 1.0 1.0 1.0
1.0 1.0 1.0 1.0 1.0 1.0 1.0 1.0
1.0 1.0 1.0 1.0 1.0
00000000: 0000 803f 0000 803f 0000 803f 0000 803f
00000010: 0000 803f 0000 803f 0000 803f 0000 803f
00000020: 0000 803f 0000 803f 0000 803f 0000 803f
00000030: 0000 803f 0000 803f 0000 803f 0000 803f
00000040: 0000 803f 0000 803f 0000 803f 0000 803f
00000050: 0000 803f

head.layers.0.weight f4 [1, 16]
-0.11818146 -0.89528865 -0.023631874 0.16288102 -0.0037459028 0.39262748 0.06592026 -0.9890325
-1.0498115 0.13194683 0.1278464 -0.4851081 0.14480956 -0.25999984 0.43652898 0.096685976
00000000: 1f09 f2bd a331 65bf a297 c1bc 48ca 263e
00000010: d27d 75bb 7806 c93e 3401 873d 3c31 7dbf
00000020: 3960 86bf 121d 073e 2bea 023e 1760 f8be
00000030: f548 143e b31e 85be ba80 df3e 4c03 c63d
